model_lstm.pth.tar (torch, 619494 bytes, 18 tensors)

embedding.weight f4 [11, 128]
0.5976785 1.8179978 -1.2703153 0.52427286 0.055294044 0.77814865 0.23751095 0.8790694
-1.1266749 -0.020504765 -0.41906574 1.4805452 1.5696179 -0.6925377 -0.7940529 1.4830654
0.2551111 -0.2747567 0.7132589 0.110250555 0.60818106 -0.2655585 -1.1952212 0.32092348
0.06951887 -0.4342467 0.8106102 -0.11261688 -2.0673516 1.708528 -0.8710708 0.16928463
-2.0312753 -1.5002452 -0.091825925 -0.32149336 -0.18540755 1.5766902 0.32466304 -0.0550222
0.17480157 -0.7543885 -0.7515306 -0.0009467665 0.5461869 -0.09185101 -0.8219348 -0.3122912
0.12700455 -1.4426934 -0.0024971378 0.11633758 -0.72272927 -0.49204525 0.9389757 -3.6395642e-05
0.06398422 -0.394328 -0.317022 -1.0154392 0.19503173 0.008370348 -1.8980852 -2.3962274
-0.8353602 0.17935511 -0.24737918 -0.89047873 -1.3169018 -0.6609552 0.81006557 -1.2979038
1.5860455 -0.41676292 0.19841798 0.1263863 1.3523415 1.0197796 1.9804809 0.01611374
-0.10444861 0.59348506 0.19059667 0.6771989 1.4646817 -0.17510937 1.1751678 0.013157062
-1.5521486 1.481101 -1.2144831 -0.13361321 -0.6688517 0.6998706 0.7375914 0.7102436
0.41901487 0.1716776 -0.40905076 0.04435652 0.79969424 -1.3797063 0.14156412 -2.0344517
0.078097306 -0.8675316 -0.5194864 -2.780436 -1.162941 2.8729713 0.18245427 -2.0986257
0.21244945 3.8349524 0.36062583 -0.10743765 -1.5933523 -1.2122127 2.3394303 -1.1602244
-0.58140904 -0.700982 1.3005363 0.22279106 0.23510358 -1.4091215 -0.3332076 -0.9414988
0.0789728 2.1853063 -0.11310897 -0.19746663 0.84327203 -0.57540363 0.011219896 -0.24079172
0.18348424 -1.3490276 1.2214077 0.82773334 0.051249046 0.14495398 0.38033897 0.08185249
-1.8652903 -0.074931495 -0.015292873 -0.18209651 1.1028029 0.8354709 -0.27937806 -1.1182367
-0.33475426 -0.5145231 0.57936347 1.2142037 -0.0005778929 1.2063005 1.4297279 -1.22448
2.224747 -0.6614453 -0.11591872 0.1293635 1.273293 -0.31549552 0.071526155 -0.36398378
-0.0037744483 -0.4961427 -1.2370529 0.896121 -0.11395089 0.05007899 0.21422549 0.14599496
-0.103403635 1.5227802 -1.1454086 1.1063381 1.0922521 -0.15727605 -1.2504206 1.0782536
1.378669 -0.7796072 0.6048267 0.11356619 -1.0150228 0.67252415 -1.4458667 0.34799972
-1.3677257 0.114178516 -0.7415087 1.5076985 -1.6030669 -0.8057077 1.0630988 -0.19465613
1.4848768 -0.1992737 -0.4688538 0.286599 -0.013793831 0.8814137 0.14204808 0.6016066
-0.0031196738 -0.3406827 1.3662022 0.5273549 1.1238947 -0.4324149 -1.7858065 -1.0968364
1.0245254 -0.48816726 -0.4031538 -1.7828493 -0.37674809 0.6924808 0.7552539 -0.22404693
-0.64829797 -0.25511804 -1.3822825 -0.31098947 -0.62946886 0.8371389 0.24444978 -1.6969578
1.9136117 -1.4487478 -0.23155107 1.1452545 0.46683857 -0.96461713 -0.26023072 -0.87019145
-1.0365784 0.88741946 0.75565803 -1.2379506 0.70501107 -0.75346416 1.2537948 -0.39508608
0.9579449 0.67749894 0.46594548 -0.46340117 -0.43881446 0.4469981 0.02648734 -1.8880265
00000000: 7501 193f 27b4 e83f b199 a2bf bf36 063f
00000010: 027c 623d c034 473f 1236 733e b10a 613f
00000020: e236 90bf 9cf9 a7bc c98f d6be 8182 bd3f
00000030: 3de9 c83f 274a 31bf 0d47 4bbf 16d5 bd3f
00000040: ec9d 823e e9ac 8cbe 2398 363f 0bcb e13d
00000050: c1b1 1b3f 49f7 87be 02fd 98bf 1550 a43e
00000060: e95f 8e3d 9555 debe 2684 4f3f aea3 e6bd
00000070: 7d4f 04c0 0cb1 da3f 7ffe 5ebf f358 2d3e
00000080: 6a00 02c0 0908 c0bf 3b0f bcbd c79a a4be
00000090: 7adb 3dbe fcd0 c93f 3c3a a63e f55e 61bd
000000a0: 2fff 323e 9b1f 41bf 4f64 40bf 6d30 78ba
000000b0: e8d2 0b3f 621c bcbd 526a 52bf a2e4 9fbe
000000c0: 7b0d 023e 2daa b8bf 05a7 23bb 6642 ee3d
000000d0: c904 39bf 5bed fbbe b660 703f 86a7 18b8
000000e0: 290a 833d 5ce5 c9be b550 a2be e9f9 81bf
000000f0: 66b6 473e c923 093c 75f4 f2bf ca5b 19c0
00000100: 2bda 55bf dea8 373e f850 7dbe 6af6 63bf
00000110: 3d90 a8bf 5c34 29bf 7560 4f3f b621 a6bf
00000120: 8a03 cb3f f361 d5be 152e 4b3e 696b 013e
00000130: 8719 ad3f 2388 823f 6680 fd3f f600 843c
00000140: 27e9 d5bd a3ee 173f c62b 433e e85c 2d3f
00000150: b17a bb3f df4f 33be e66b 963f b890 573c
00000160: ceac c6bf b894 bd3f 2f74 9bbf e7d1 08be
00000170: dd39 2bbf b82a 333f cad2 3c3f 86d2 353f
00000180: 1e89 d63e 41cc 2f3e 1a6f d1be 2faf 353d
00000190: c3b8 4c3f 379a b0bf 2ff6 103e 7534 02c0
000001a0: 7bf1 9f3d 8d16 5ebf 10fd 04bf aaf2 31c0
000001b0: 40db 94bf c3de 3740 4bd5 3a3e e24f 06c0
000001c0: 598c 593e dc6f 7540 f3a3 b83e 4508 dcbd
000001d0: f8f2 cbbf c929 9bbf 3ab9 1540 3c82 94bf
000001e0: 39d7 14bf 8e73 33bf f977 a63f 5723 643e
000001f0: febe 703e 185e b4bf 309a aabe 1106 71bf
00000200: 7ebc a13d 0fdc 0b40 ada5 e7bd b134 4abe
00000210: ade0 573f a74d 13bf a8d3 373c 1b92 76be
00000220: 4be3 3b3e f0ac acbf 1657 9c3f 55e6 533f
00000230: 85ea 513d d16e 143e cabb c23e 47a2 a73d
00000240: d5c1 eebf af75 99bd f58e 7abc 8277 3abe
00000250: a528 8d3f 6ce1 553f a40a 8fbe 6122 8fbf
00000260: e964 abbe c9b7 03bf 2a51 143f 076b 9b3f
00000270: bc7d 17ba 0e68 9a3f 5301 b73f c3bb 9cbf
00000280: 4162 0e40 7b54 29bf cb66 edbd de77 043e
00000290: 44fb a23f a188 a1be 4e7c 923d 155c babe
000002a0: bc5c 77bb 6a06 febe c057 9ebf 3068 653f
000002b0: 165f e9bd a11f 4d3d ed5d 5b3e b47f 153e
000002c0: 49c5 d3bd 76ea c23f c09c 92bf 7d9c 8d3f
000002d0: ebce 8b3f f90c 21be c80d a0bf 3704 8a3f
000002e0: 3a78 b03f 5694 47bf ecd5 1a3f 6495 e83d
000002f0: 44ec 81bf 8b2a 2c3f 2912 b9bf 052d b23e
00000300: a311 afbf 6dd6 e93d 84d3 3dbf 44fc c03f
00000310: 4c31 cdbf dc42 4ebf 9f13 883f f053 47be
00000320: 7110 be3f 680e 4cbe 9b0d f0be 1bbd 923e
00000330: 85ff 61bc 54a4 613f 0d75 113e e402 1a3f
00000340: 7173 4cbb f66d aebe b7df ae3f bb00 073f
00000350: c8db 8f3f 7c65 ddbe 4f95 e4bf 2365 8cbf
00000360: a623 833f 0ff1 f9be 2d6a cebe 6834 e4bf
00000370: 20e5 c0be 6c46 313f 5258 413f 8f6c 65be
00000380: dbf6 25bf d59e 82be a2ee b0bf 033a 9fbe
00000390: df24 21bf bc4e 563f 0b51 7a3e ea35 d9bf
000003a0: 3af1 f43f 9170 b9bf b91b 6dbe b397 923f
000003b0: 7705 ef3e 26f1 76bf f63c 85be dec4 5ebf
000003c0: 9aae 84bf ec2d 633f ce72 413f 2a75 9ebf
000003d0: 9b7b 343f 07e3 40bf 597c a03f b948 cabe
000003e0: e13b 753f 9270 2d3f 6890 ee3e eb42 edbe
000003f0: 4aac e0be efdc e43e fafb d83c daaa f1bf

lstm.weight_ih_l0 f4 [256, 128]
-0.0024040642 -0.14810264 -0.13248156 0.13181582 0.029146805 0.0055525033 0.10760864 0.010069263
0.07703461 0.05341504 -0.1978605 -0.020190611 0.19134293 0.04574397 0.033706926 0.09098436
0.0096057 0.14698298 -0.0024370702 -0.025260707 -0.07637116 -0.15555704 -0.17260338 0.04518585
0.01045215 0.048549324 -0.07023511 0.08479251 -0.13945922 0.11168573 -0.050524913 0.09075845
-0.13092831 -0.016836992 0.032431453 0.05632289 0.16829482 0.0021425497 0.13871825 -0.018435642
-0.02380818 0.096634455 -0.10668162 -0.08817071 -0.017665379 -0.15373416 -0.12780754 0.06272856
-0.033631295 -0.06328075 -0.048711218 -0.0051066345 0.04214168 -0.009273003 0.0622724 -0.16943039
-0.103644714 0.1818905 0.032346852 0.017309561 0.016022934 0.1520699 -0.08705813 -0.055290937
-0.068218425 0.07681806 0.09355888 -0.006519578 0.10051224 -0.07016251 -0.07936085 -0.005299931
-0.09206243 -0.16918063 0.114821196 0.08916633 -0.12445319 0.023799531 0.29223537 -0.14456789
0.06347638 0.04024321 0.056792278 -0.05343843 -0.020077294 0.29741368 0.15257981 0.119686484
-0.21599495 0.11700955 -0.119571194 -0.08121065 -0.03768532 0.07003737 -0.13899176 0.19206758
0.05941544 0.1155437 -0.11970316 0.0419546 0.034087483 -0.06075186 0.050192405 0.024228137
-0.18289286 0.034674756 -0.063548714 -0.15365733 -0.1940985 0.03695166 0.08177626 -0.0552415
0.015966447 0.07893873 0.20516875 0.17242634 -0.043631695 -0.12831464 0.08956374 -0.020283228
-0.17421488 0.041928757 0.021030966 -0.03687176 0.07569215 -0.11228489 0.051489774 -0.021587502
0.081641 -0.016182782 -0.019928392 0.045498237 0.031151868 0.03334358 -0.05557195 0.1257255
-0.11783073 0.12697129 -0.1092984 0.03831075 0.029870585 -0.09483074 0.13887571 0.14585328
0.002161129 0.06752333 -0.012556737 0.053451724 0.06987482 -0.016414618 -0.0025456506 0.1356734
-0.0040476024 0.041864384 0.010928592 -0.1417703 0.07144078 0.15951367 -0.1109174 0.057426967
-0.13219513 0.070758656 0.04340139 -0.10786063 -0.024644107 0.14257646 -0.051068977 0.09118
0.0021124189 -0.014689804 0.047020487 -0.11499595 -0.106256984 -0.109166674 0.06963773 0.049637936
0.052846137 -0.16761985 0.020703183 -0.13942465 -0.05276684 -0.05935313 -0.07198732 -0.07515705
0.0753624 0.10952315 0.05944993 0.06686565 -0.068594255 -0.024886517 0.05945521 -0.187098
0.11085292 0.13491468 0.046094857 -0.15995125 -0.0010164952 0.005453684 -0.01592795 0.025428396
-0.11057387 -0.16173998 0.053626984 -0.0056636664 -0.012065562 -0.039189763 -0.010119574 -0.07442126
-0.04076332 0.02562081 -0.013798849 0.03609398 -0.017505689 0.13079624 0.10549432 0.13570835
-0.16065079 0.07369126 -0.052646767 0.0074541178 0.06284704 0.08490484 0.033788532 0.2557469
0.029922824 0.06693472 0.028546903 -0.019462915 0.10067066 -0.044233333 0.031312793 0.05561275
-0.16940917 0.09068279 -0.09420446 -0.18836023 0.04111258 0.1794109 -0.05507524 -0.017547175
-0.095550165 -0.06469245 0.09510316 0.113594994 -0.010898373 -0.06587609 0.003079958 -0.02898328
-0.16776088 -0.051507827 -0.0496439 -0.11938985 0.1065329 -0.14274886 -0.12503245 -0.08748439
00000000: 818d 1dbb 38a8 17be 3fa9 07be bafa 063e
00000010: 48c5 ee3c c6f1 b53b eb61 dc3d 8df9 243c
00000020: 52c4 9d3d bbc9 5a3d f19b 4abe c866 a5bc
00000030: 67ef 433e 075e 3b3d 4610 0a3d 0256 ba3d
00000040: 3a61 1d3c b582 163e 41b7 1fbb 8bef cebc
00000050: 7c68 9cbd 584a 1fbe f1be 30be cc14 393d
00000060: 7f3f 2b3c a8db 463d 6dd7 8fbd b2a7 ad3d
00000070: 66ce 0ebe 7dbb e43d 36f3 4ebd 91df b93d
00000080: 1212 06be bbed 89bc d8d6 043d d5b2 663d
00000090: 7a55 2c3e 056a 0c3b 280c 0e3e 5806 97bc
000000a0: 5f09 c3bc 49e8 c53d e57b dabd d892 b4bd
000000b0: fcb6 90bc 7d6c 1dbe fbdf 02be d577 803d
000000c0: f8c0 09bd 5699 81bd 6a85 47bd 8e55 a7bb
000000d0: c19c 2c3d cbed 17bc 5811 7f3d 297f 2dbe
000000e0: ae43 d4bd 8141 3a3e 227e 043d c8cc 8d3c
000000f0: 8742 833c 36b8 1b3e 884b b2bd c078 62bd
00000100: 1ab6 8bbd c952 9d3d cc9b bf3d 2fa2 d5bb
00000110: 5cd9 cd3d 5db1 8fbd f187 a2bd 0bab adbb
00000120: 3a8b bcbd b03d 2dbe 6027 eb3d d69c b63d
00000130: 50e1 febd 3cf7 c23c e09f 953e 9b09 14be
00000140: e8ff 813d 10d6 243d 059f 683d 41e2 5abd
00000150: 2379 a4bc 9b46 983e e23d 1c3e 301e f53d
00000160: c82d 5dbe b4a2 ef3d bee1 f4bd c551 a6bd
00000170: ec5b 1abd c16f 8f3d db53 0ebe 5dad 443e
00000180: 9b5d 733d 2da2 ec3d ee26 f5bd 96d8 2b3d
00000190: 519f 0b3d f1d6 78bd 8d96 4d3d 167a c63c
000001a0: 4448 3bbe 1e07 0e3d d425 82bd 5958 1dbe
000001b0: c2c1 46be a05a 173d 507a a73d e944 62bd
000001c0: 11cc 823c a1aa a13d c217 523e 8890 303e
000001d0: 26b7 32bd ea64 03be 326d b73d 0329 a6bc
000001e0: 6365 32be 7dbd 2b3d 2249 ac3c d806 17bd
000001f0: 7c04 9b3d 9ff5 e5bd f1e6 523d 46d8 b0bc
00000200: 6633 a73d c191 84bc de40 a3bc 5c5c 3a3d
00000210: 3432 ff3c 4793 083d 6a9f 63bd 2fbe 003e
00000220: 3d51 f1bd c304 023e d7d7 dfbd bceb 1c3d
00000230: 28b3 f43c 9e36 c2bd 6f35 0e3e 905a 153e
00000240: baa1 0d3b ac49 8a3d c6ba 4dbc 32f0 5a3d
00000250: 881a 8f3d f377 86bc eed4 26bb f8ed 0a3e
00000260: c0a1 84bb fd79 2b3d d60d 333c 3c2c 11be
00000270: 8b4f 923d 8d57 233e a928 e3bd 8a38 6b3d
00000280: 295e 07be eae9 903d a8c5 313d 09e6 dcbd
00000290: 70e2 c9bc 90ff 113e b42d 51bd 94bc ba3d
000002a0: 8270 0a3b 81ad 70bc 8e98 403d ff82 ebbd
000002b0: 439d d9bd c792 dfbd 3a9e 8e3d 2651 4b3d
000002c0: 3175 583d 8aa4 2bbe b999 a93c 56c5 0ebe
000002d0: 0b22 58bd 451c 73bd 176e 93bd f0eb 99bd
000002e0: 9a57 9a3d ac4d e03d c581 733d dcf0 883d
000002f0: 257b 8cbd cfde cbbc 4e87 733d 9e96 3fbe
00000300: db06 e33d 1327 0a3e f6cd 3c3d 43ca 23be
00000310: eb3b 85ba d1b4 b23b 557b 82bc 364f d03c
00000320: 8e74 e2bd 2a9f 25be f8a7 5b3d 4796 b9bb
00000330: a3ae 45bc 7285 20bd 92cc 25bc 2c6a 98bd
00000340: 70f7 26bd bce2 d13c 9114 62bc 48d7 133d
00000350: 1768 8fbc 73ef 053e 680d d83d 21f7 0a3e
00000360: a481 24be 71eb 963d 23a4 57bd ac41 f43b
00000370: f3b5 803d 97e2 ad3d d865 0a3d 42f1 823e
00000380: b620 f53c 1215 893d 32db e93c b170 9fbc
00000390: 6b2c ce3d 032e 35bd d841 003d 32ca 633d
000003a0: 9979 2dbe e6b7 b93d 45ee c0bd 81e1 40be
000003b0: aa65 283d 7eb7 373e 9396 61bd 18bf 8fbc
000003c0: ceaf c3bd 7a7d 84bd 72c5 c23d 7ea4 e83d
000003d0: 178f 32bc 0bea 86bd 1fd9 493b 586e edbc
000003e0: 82c9 2bbe dff9 52bd 6757 4bbd aa82 f4bd
000003f0: ec2d da3d c22c 12be 8208 00be 042b b3bd

lstm.weight_hh_l0 f4 [256, 64]
-0.05960352 0.0401167 -0.33668634 -0.1598751 -0.16350158 0.549155 0.105996974 -0.17664152
0.16117232 -0.2983652 0.006530177 0.0036104054 -0.22510281 -0.043619957 0.23933832 0.11744526
0.33945766 -0.08260706 -0.4936099 -0.051080897 0.2253898 0.03413049 -0.17772193 -0.33195993
0.11324152 0.0021979269 0.05354875 -0.14602202 0.007821992 -0.07947763 -0.05871329 -0.11965224
-0.17917481 -0.88899744 0.011937861 -0.028231371 0.049515154 0.22534637 0.060416516 -0.09431831
-0.17741282 -0.21837635 -0.43178344 0.014030371 0.11743946 -0.32041124 -0.092761785 -0.06975934
0.05994657 -0.015713235 0.006586126 -0.25026172 -0.0031069356 -0.013222081 0.020963179 -0.16035804
-0.0129403975 0.09539547 0.012921214 0.18854506 0.10409979 0.04806963 -0.0110651655 0.232062
-0.007020757 -0.0022198863 -0.050217435 -0.05238404 0.059528627 0.08646536 -0.11443893 -0.05006758
0.12624581 0.37611073 0.002862549 0.19552201 -0.0063253976 0.022024604 -0.10298474 0.08069963
0.4090485 -0.01815931 -0.11461854 0.0006718682 0.08081794 -0.02647264 -0.14187637 -0.13480338
-0.11473745 -0.106484786 0.015460022 -0.06145707 0.057902273 0.012376788 0.025443144 -0.040214024
0.023547309 0.29961103 -0.1454395 -0.070258364 -0.03865383 -0.03952137 0.054435313 -0.04965653
-0.10759536 0.12867218 -0.014342426 0.123961315 0.07922488 0.09761019 -0.14314133 -0.2292717
0.026919475 0.06480685 0.008562973 -0.05597979 0.030837305 -0.119003244 -0.09380679 0.024611585
-0.032720443 -0.07459662 -0.033682644 0.24322967 -0.0054702945 0.09867923 0.11065593 0.008774046
-0.119849466 -0.10582902 0.044846956 0.06838885 0.02866282 0.29592946 0.023278108 0.013909026
0.038858395 0.012749983 0.40398112 0.049519032 -0.18986572 0.061988138 -0.3132569 0.09212106
0.29015967 -0.039308682 -0.035429057 0.08396593 -0.0522398 -0.02363922 -0.07014614 -0.10382309
0.017567802 -0.020116653 0.10234891 0.1335495 0.06522099 -0.29221103 0.117472954 -0.05682662
-0.030164707 -0.24877855 -0.025022138 -0.028385295 -0.043196518 -0.18566136 0.06541074 0.018444242
0.101472884 0.24200979 0.09776808 0.035518054 0.09676048 0.48523024 -0.07771337 -0.07110914
-0.07900331 0.055060737 -0.07035038 0.101237714 0.028348051 -0.062906116 -0.16758744 0.09365458
0.10953054 -0.124508515 0.06342762 -0.05188258 0.12733546 -0.018208954 0.2590067 0.0859789
-0.09390583 -0.0394571 -0.43331534 -0.109338224 -0.02953784 0.5255241 -0.043914735 0.09493305
0.02857794 0.051175293 0.13622105 0.008439353 -0.44078687 -0.1760828 -0.13415782 0.052165292
0.6419675 0.016789585 -0.20569812 0.009661332 0.02724413 0.121048436 -0.18299843 -0.008535718
0.17958353 0.05971408 -0.0031001305 0.05371146 0.0732411 -0.20492196 -0.027931023 -0.011572761
-0.13469183 -0.3843115 -0.009177199 -0.1525723 -0.15772733 -0.07892282 0.061955396 0.111463204
-0.048769645 0.17787422 -0.052780513 0.14489365 0.028427215 0.12375828 -0.06785604 0.64502835
0.04425297 0.014083565 0.013387745 -0.26973468 0.26877877 -0.10756392 -0.13342422 -0.08954016
-0.11821527 0.00045026414 0.053833924 0.15444191 0.100391395 0.09794423 -0.22741002 -0.14075366
00000000: d222 74bd 6951 243d 2762 acbe 4cb6 23be
00000010: f56c 27be 6c95 0c3f f114 d93d 84e1 34be
00000020: 5b0a 253e 53c3 98be 18fb d53b 8d9c 6c3b
00000030: 5a81 66be d7aa 32bd 1b15 753e 2487 f03d
00000040: 65cd ad3e e42d a9bd 70ba fcbe 343a 51bd
00000050: 95cc 663e 6acc 0b3d bdfc 35be a7f6 a9be
00000060: 2ceb e73d 180b 103b ef55 5b3d cc86 15be
00000070: d027 003c 2bc5 a2bd 597d 70bd 3c0c f5bd
00000080: 9a79 37be 5695 63bf 0597 433c 7a45 e7bc
00000090: 67d0 4a3d 33c1 663e 4f77 773d f529 c1bd
000000a0: b5ab 35be 0d9e 5fbe b812 ddbe a4df 653c
000000b0: 1984 f03d f10c a4be e4f9 bdbd fcdd 8ebd
000000c0: 898a 753d 0bb9 80bc 6ed0 d73b 4e22 80be
000000d0: bb9d 4bbb 6da1 58bc f9ba ab3c e634 24be
000000e0: f603 54bc b35e c33d 80b3 533c f511 413e
000000f0: 4532 d53d a9e4 443d ab4a 35bc a9a1 6d3e
00000100: 610e e6bb 837b 11bb ccb0 4dbd a690 56bd
00000110: 4ad4 733d c014 b13d f55e eabd aa13 4dbd
00000120: 9546 013e 9691 c03e 9a99 3b3b ec36 483e
00000130: 4845 cfbb f16c b43c aae9 d2bd d945 a53d
00000140: ce6e d13e d5c2 94bc 20bd eabd 5020 303a
00000150: e083 a53d 26dd d8bc 0a48 11be e609 0abe
00000160: 78fb eabd b214 dabd 084c 7d3c 69ba 7bbd
00000170: ef2a 6d3d 03c8 4a3c 246e d03c 76b7 24bd
00000180: 49e6 c03c 9e66 993e 18ee 14be 9ee3 8fbd
00000190: 7a53 1ebd 29e1 21bd 90f7 5e3d a564 4bbd
000001a0: f55a dcbd a4c2 033e 7ffc 6abc 6edf fd3d
000001b0: a740 a23d dae7 c73d a493 12be 33c6 6abe
000001c0: 3b86 dc3c 74b9 843d b64b 0c3c 104b 65bd
000001d0: 849e fc3c f9b7 f3bd c61d c0bd 3c9e c93c
000001e0: df05 06bd 1dc6 98bd d0f6 09bd 3311 793e
000001f0: 2840 b3bb 5618 ca3d 949f e23d 04c1 0f3c
00000200: a373 f5bd e3bc d8bd 71b1 373d 740f 8c3d
00000210: 4ace ea3c 1184 973e bbb1 be3c afe2 633c
00000220: fb29 1f3d 4ee5 503c 9dd6 ce3e 78d4 4a3d
00000230: 296c 42be 46e7 7d3d 3563 a0be f7a9 bc3d
00000240: cf8f 943e 2402 21bd 0f1e 11bd 54f6 ab3d
00000250: 67f9 55bd 0aa7 c1bc c8a8 8fbd 33a1 d4bd
00000260: 5aea 8f3c aecb a4bc 4e9c d13d 33c1 083e
00000270: 9592 853d af9c 95be a995 f03d 08c3 68bd
00000280: fa1b f7bc cebf 7ebe 3afb ccbc 4788 e8bc
00000290: d5ee 30bd 031e 3ebe 11f6 853d 6118 973c
000002a0: 04d1 cf3d 6ad1 773e a23a c83d 617b 113d
000002b0: 5c2a c63d 1970 f83e 3028 9fbd aba1 91bd
000002c0: 7dcc a1bd 5e87 613d dc13 90bd b855 cf3d
000002d0: 2c3a e83c ecd4 80bd 0b9c 2bbe f9cd bf3d
000002e0: 8c51 e03d 52fe febd 57e6 813d d482 54bd
000002f0: 3a64 023e f22a 95bc 879c 843e b515 b03d
00000300: b351 c0bd c59d 21bd 82db ddbe b8ec dfbd
00000310: 57f9 f1bc bf88 063f f0df 33bd 426c c23d
00000320: 491c ea3c 2f9d 513d 887d 0b3e 3645 0a3c
00000330: d1ae e1be 0d4f 34be ab60 09be 46ab 553d
00000340: fb57 243f 508a 893c 87a2 52be 904a 1e3c
00000350: 152f df3c 3ee8 f73d f163 3bbe 65d9 0bbc
00000360: bfe4 373e c096 743d 8f2b 4bbb 8c00 5c3d
00000370: 6eff 953d 10d7 51be 9acf e4bc ae9b 3dbc
00000380: a8ec 09be 7ac4 c4be f65b 16bc ea3b 1cbe
00000390: 4683 21be 4aa2 a1bd f1c4 7d3d d246 e43d
000003a0: aec2 47bd a924 363e 6130 58bd 005f 143e
000003b0: 31e0 e83c fb74 fd3d 1cf8 8abd 9420 253f
000003c0: 9a42 353d c1be 663c 4658 5b3c aa1a 8abe
000003d0: 5f9d 893e 794a dcbd 5ca0 08be d560 b7bd
000003e0: d91a f2bd 6e11 ec39 f680 5c3d 0526 1e3e
000003f0: 019a cd3d fc96 c83d 2cde 68be ba21 10be

lstm.bias_ih_l0 f4 [256]
-0.19296937 -0.092013545 -0.13370876 -0.13765295 -0.081124954 -0.062254906 0.074041046 0.20055658
0.004880281 -0.22559933 -0.096488886 -0.3148727 0.04281363 -0.029068388 -0.056866743 -0.054600716
-0.075647086 -0.04933632 -0.11658798 0.03831852 -0.104610264 0.011380456 -0.29888397 -0.30898646
-0.1850454 0.07324014 0.04295271 0.24894887 -0.15675642 -0.026126597 -0.12127937 0.13135277
-0.11877162 0.043062672 -0.04556626 0.054366328 -0.14358029 0.40299973 0.06585722 0.13757075
0.09362761 -0.08954925 -0.22817758 -0.12050434 0.009587404 0.07343075 -0.00024690255 -0.119813256
-0.18886122 -0.10224012 -0.011400858 -0.13394947 -0.2460503 0.1152751 0.045992516 0.07078375
-0.07844012 0.1385516 0.014984023 0.021999437 0.008605835 0.14516415 -0.2848716 -0.20547476
0.1500746 0.16588436 0.10935414 0.051927913 0.093440294 0.13110086 0.1351964 0.17391494
0.040913343 0.0720346 0.25479642 -0.018047187 0.16063422 -0.031621654 0.17392173 0.11328534
0.056760598 0.19118524 0.17666413 0.007997624 0.18163621 0.1155939 -0.019912207 0.08531737
0.0022265473 0.30474097 0.11860951 0.27532783 0.05431757 0.007916127 0.26825288 0.30949515
0.09907215 0.39693788 0.3340592 0.22847246 0.15602817 0.038550116 0.18331234 0.13201354
0.23218746 0.17138787 0.23647813 0.27557242 -0.06827289 0.1279743 0.28834116 -0.027791724
-0.108721234 0.21092857 0.11186859 0.16889635 0.00783213 0.1652907 0.10499288 0.25790426
0.09815397 0.11561142 0.06856408 0.21858552 0.13625407 0.22725779 -0.13586967 0.071802504
-0.19378345 -0.066138156 0.18293868 0.054469224 -0.15483718 -0.06894039 -0.0049181446 -0.24895692
0.19581553 -0.103018105 0.039171074 0.047394674 -0.13813378 0.253154 0.11167324 0.03231114
0.031526003 -0.19120957 0.09766599 -0.0087319 0.006737705 0.099204175 -0.079450004 0.03436758
-0.12052762 0.15082048 0.09709674 -0.23334947 0.15903288 0.037661586 -0.14434224 -0.2745874
-0.19868569 0.05683937 -0.14329867 0.34161824 -0.160681 0.35391068 -0.015008502 0.038238563
-0.2017001 -0.049665034 0.09735935 0.18440542 -0.041424807 -0.04193431 -0.19884086 -0.13575464
-0.20560886 -0.21270716 0.19430262 0.041410845 0.012025708 -0.35565135 -0.05681154 -0.26696122
0.123817116 0.19254525 -0.12062315 0.20983152 0.06454677 0.2500847 -0.14708647 -0.054549117
-0.18335585 0.09983684 0.21543598 0.06448007 0.04595059 0.009351894 0.07957181 0.004930063
0.037531607 0.04096936 0.29039624 0.09230143 0.5277049 -0.14309393 0.46671137 0.28015804
0.01582756 0.044799276 0.12580734 0.05911295 -0.13365959 0.0012869082 -0.035677884 -0.041643135
-0.23072112 0.34359848 0.043620862 0.31671622 0.018959085 0.36939037 0.23234332 0.32301554
-0.025920987 -0.28746706 0.28041837 -0.08913697 -0.06602594 0.49735272 0.21836254 0.38179487
0.18162555 0.24273214 0.07781454 0.070004985 -0.26723218 0.51945096 0.07802503 -0.21278934
0.24828124 0.04439363 0.2766755 -0.15613067 0.01965509 0.20760302 0.32026052 -0.020384083
-0.014242824 -0.030056678 0.059501383 0.11626952 -0.121122174 0.28579563 0.013099967 -0.14442267
00000000: c399 45be 9971 bcbd f3ea 08be e5f4 0cbe
00000010: d724 a6bd 00ff 7ebd d5a2 973d b45e 4d3e
00000020: c4ea 9f3b 8303 67be f79b c5bd ff36 a1be
00000030: 585d 2f3d d420 eebc 1aed 68bd 00a5 5fbd
00000040: dcec 9abd e214 4abd aec5 eebd e1f3 1c3d
00000050: e83d d6bd 1875 3a3c 5207 99be 7933 9ebe
00000060: 8b7c 3dbe edfe 953d 2eef 2f3d 74ec 7e3e
00000070: c184 20be 7207 d6bc 5161 f8bd 5781 063e
00000080: 893e f3bd 7c62 303d b0a3 3abd 3aaf 5e3d
00000090: b606 13be fb55 ce3e 26e0 863d 59df 0c3e
000000a0: d5bf bf3d 9965 b7bd 62a7 69be fbca f6bd
000000b0: 7d14 1d3c dc62 963d b372 81b9 a760 f5bd
000000c0: d664 41be 4563 d1bd aaca 3abc 0d2a 09be
000000d0: 9cf4 7bbe 5a15 ec3d a662 3c3d 12f7 903d
000000e0: 37a5 a0bd 78e0 0d3e 8c7f 753c 2a38 b43c
000000f0: 7dff 0c3c e9a5 143e b1da 91be fa67 52be
00000100: 28ad 193e 97dd 293e 10f5 df3d 5db2 543d
00000110: a05d bf3d 4e3f 063e ed70 0a3e c216 323e
00000120: c094 273d e086 933d ad74 823e b2d7 93bc
00000130: 4c7d 243e b585 01bd 8a18 323e 2502 e83d
00000140: cd7d 683d 10c6 433e 71e7 343e 7708 033c
00000150: d8fe 393e 7fbc ec3d ed1e a3bc e0ba ae3d
00000160: 44eb 113b 0207 9c3e 8be9 f23d c5f7 8c3e
00000170: 1a7c 5e3d a5b2 013c 7158 893e 2676 9e3e
00000180: 57e6 ca3d 713b cb3e cf09 ab3e aff4 693e
00000190: d9c5 1f3e bae6 1d3d 3bb6 3b3e 8f2e 073e
000001a0: 8dc2 6d3e 4d80 2f3e 5327 723e d417 8d3e
000001b0: a8d2 8bbd b20b 033e 74a1 933e 78ab e3bc
000001c0: 3da9 debd a9fd 573e 5c1b e53d 2af3 2c3e
000001d0: 5652 003c f741 293e 8206 d73d 070c 843e
000001e0: f304 c93d aec5 ec3d 536b 8c3d e2d4 5f3e
000001f0: 3086 0b3e 44b6 683e 6b21 0bbe 310d 933d
00000200: 2b6f 46be 7173 87bd 4754 3b3e 1f1b 5f3d
00000210: a38d 1ebe 9f30 8dbd 6328 a1bb 90ee 7ebe
00000220: de83 483e 28fb d2bd d971 203d eb20 423d
00000230: f172 0dbe 679d 813e f1b4 e43d b058 043d
00000240: 6921 013d 71cc 43be 1b05 c83d 3e10 0fbc
00000250: f7c7 dc3b 8f2b cb3d afb6 a2bd 05c5 0c3d
00000260: 2fd7 f6bd af70 1a3e a8da c63d 2af3 6ebe
00000270: 84d9 223e 0943 1a3d 74ce 13be b896 8cbe
00000280: 4374 4bbe 66d0 683d e3bc 12be 96e8 ae3e
00000290: 8f89 24be c833 b53e 38e6 75bc 0aa0 1c3d
000002a0: 798a 4ebe 906d 4bbd 5764 c73d c6d4 3c3e
000002b0: 0fad 29bd 50c3 2bbd f09c 4bbe 4403 0bbe
000002c0: 218b 52be e8cf 59be 44f7 463e 6b9e 293d
000002d0: 7a07 453c ef17 b6be 38b3 68bd 24af 88be
000002e0: d493 fd3d 952a 453e 4509 f7bd 13de 563e
000002f0: 1931 843d 1a0b 803e d69d 16be e56e 5fbd
00000300: a3c1 3bbe 4277 cc3d 409b 5c3e 200e 843d
00000310: b036 3c3d b038 193c 8cf6 a23d 5e8c a13b
00000320: beba 193d 7dcf 273d d1ae 943e 8808 bd3d
00000330: ab17 073f 3787 12be cbf4 ee3e e070 8f3e
00000340: cda8 813c 727f 373d a4d3 003e 6c20 723d
00000350: 0fde 08be 79ad a83a f922 12bd fe91 2abd
00000360: 2842 6cbe 24ec af3e caab 323d a128 a23e
00000370: 1550 9b3c bc20 bd3e 68eb 6d3e 4b62 a53e
00000380: 4058 d4bc e22e 93be ff92 8f3e 728d b6bd
00000390: 9c38 87bd 04a5 fe3e 6e9a 5f3e 9e7a c33e
000003a0: 0cfc 393e c68e 783e 3b5d 9f3d c65e 8f3d
000003b0: a8d2 88be bdfa 043f 96cb 9f3d 73e5 59be
000003c0: 703d 7e3e 18d6 353d 69a8 8d3e b8e0 1fbe
000003d0: b603 a13c e395 543e 30f9 a33e 85fc a6bc
000003e0: bc5a 69bc 6c39 f6bc b9b7 733d b71e ee3d
000003f0: e70e f8bd ce53 923e 3ea1 563c 89e3 13be

lstm.bias_hh_l0 f4 [256]
-0.1380824 -0.16741353 -0.1945925 -0.12144635 -0.044870712 -0.24142502 0.05396667 0.20365728
-0.1542974 -0.116806306 -0.09601269 -0.11595507 0.06034277 -0.008235546 -0.035832945 -0.1041547
-0.26363093 -0.09926964 -0.23045501 -0.085048504 -0.060887445 -0.17783488 -0.17154975 -0.25664702
-0.09692587 0.037753206 0.11747895 0.20915058 -0.19494356 0.09877353 0.05733617 0.17739688
-0.024033612 -0.03209452 -0.09689599 0.031471815 0.03387632 0.24562909 -0.08507335 -0.016150817
0.0030258948 -0.129495 -0.22602533 -0.08148803 -0.122544065 0.027605418 -0.08351668 -0.063977145
-0.111483194 -0.15553702 0.066686094 -0.011031456 -0.05151255 -0.05698925 0.011903382 -0.00012615051
-0.19876617 0.2663931 -0.036352325 -0.012308162 -0.025295852 0.13267736 -0.107611574 -0.13708237
0.15951686 0.2439876 -0.008439821 0.17018043 0.26087168 -0.054730017 0.09048109 0.078017674
0.21397534 -0.11397032 0.24762413 -0.07643181 0.22848769 0.014726432 0.35871288 0.106816255
-0.05783708 0.1251846 0.15972331 0.03157262 0.2548285 0.05533378 -0.053194925 0.14861405
0.1563457 0.2033684 0.1670417 0.13645972 0.11018067 0.069488734 0.15186138 0.30806422
-0.013244476 0.42149898 0.34840414 -0.0044245007 0.1073654 0.14018759 0.0016827765 0.22155192
0.18989651 0.18559808 0.15335684 0.17045732 0.12705065 0.14486347 0.10090626 0.024386348
-0.07207398 0.23972626 0.1707493 0.094978236 -0.06473252 0.123947024 0.0047863643 0.17122774
0.13001078 0.2360031 0.12982026 0.06705771 0.11927576 0.30058992 -0.016759904 0.11196735
-0.0018366679 -0.10353117 -0.054308396 -0.015845602 -0.06396599 0.014166255 -0.1750407 -0.3174578
0.21182418 -0.09753696 -0.095725216 -0.11491748 -0.14502837 0.08069266 0.069031954 0.17218152
0.15618704 -0.18861213 -0.082103126 -0.1046189 -0.15656465 0.109626435 -0.031774063 0.05072034
0.08082578 0.16602102 0.059356578 -0.24709891 0.2240397 0.09583673 -0.17678502 -0.3122467
-0.2588544 0.053814292 -0.19714826 0.18810037 -0.09941931 0.16914721 -0.038926177 -0.059382603
-0.25191364 0.15792258 -0.0062168725 0.11582051 -0.065321706 -0.07729146 -0.14646563 -0.19800837
-0.1087088 -0.14225174 0.1030367 0.04617951 -0.0043899743 -0.24084212 -0.07252694 -0.24601448
0.13454801 0.10269611 0.07591411 0.037806187 -0.00089010195 0.18735923 0.012013707 0.12844104
-0.096428275 0.0016696573 0.064557 0.043302998 -0.033266123 0.009298376 0.025252733 -0.108637504
0.010263472 -0.15143432 0.3010472 -0.035909444 0.3932175 -0.09927011 0.29415983 0.09053946
-0.08428458 0.018146725 0.062957056 -0.033230845 0.020790849 0.06540833 0.11645888 0.16786537
-0.11720564 0.319597 0.17242426 0.32577753 0.13088654 0.4339549 0.08343317 0.28789142
0.035823174 -0.20250456 0.18856761 0.011394599 0.09914192 0.53290886 0.16660602 0.35024315
0.13849612 0.16998571 -0.16504224 -0.010334486 -0.31969938 0.3567925 0.080148496 -0.09989018
0.20053256 0.1366549 0.23893091 -0.072036125 0.049738955 0.20446068 0.27585518 -0.00911037
-0.073533416 -0.086467795 0.054379214 0.23461436 0.079171084 0.15321589 -0.16022798 0.026962638
00000000: 7965 0dbe 746e 2bbe 4243 47be ddb8 f8bd
00000010: 5aca 37bd 1f38 77be 280c 5d3d 898b 503e
00000020: 2300 1ebe 2538 efbd 4da2 c4bd da79 edbd
00000030: fb29 773d 62ee 06bc 91c5 12bd 0f4f d5bd
00000040: a2fa 86be e24d cbbd 66fc 6bbe e92d aebd
00000050: 1d65 79bd 591a 36be bdaa 2fbe 3d67 83be
00000060: 1281 c6bd 1ba3 1a3d ce98 f03d 922b 563e
00000070: 499f 47be c749 ca3d 55d9 6a3d 87a7 353e
00000080: 23e2 c4bc 8b75 03bd 6871 c6bd 97e8 003d
00000090: e5c1 0a3d 3186 7b3e f03a aebd b84e 84bc
000000a0: 174e 463b 569a 04be 2f73 67be 32e3 a6bd
000000b0: 62f8 fabd c224 e23c cb0a abbd 7306 83bd
000000c0: 4d51 e4bd 1945 1fbe b892 883d 48bd 34bc
000000d0: d3fe 52bd 8f6d 69bd 6706 433c 4547 04b9
000000e0: 5c89 4bbe ad64 883e 2de6 14bd 2ca8 49bc
000000f0: 3f39 cfbc 93dc 073e 7563 dcbd 525f 0cbe
00000100: 6358 233e e3d7 793e 2d47 0abc c743 2e3e
00000110: f990 853e 952c 60bd 264e b93d bbc7 9f3d
00000120: 5a1c 5b3e 4569 e9bd 2e91 7d3e 4888 9cbd
00000130: adf8 693e 2247 713c 37a9 b73e 7bc2 da3d
00000140: 93e6 6cbd 6430 003e 828e 233e 4b52 013d
00000150: e278 823e aca5 623d ece2 59bd 482e 183e
00000160: 1619 203e ce3f 503e fb0c 2b3e 19bc 0b3e
00000170: 67a6 e13d 1c50 8e3d 8d81 1b3e 98ba 9d3e
00000180: 5cff 58bc b7ce d73e 0762 b23e 67fb 90bb
00000190: 64e2 db3d 568d 0f3e 9c90 dc3a 82de 623e
000001a0: 3b74 423e 6c0d 3e3e 9309 1d3e 5d8c 2e3e
000001b0: 9119 023e 1757 143e f1a7 ce3d e1c5 c73c
000001c0: 869b 93bd cd7a 753e e8d8 2e3e f383 c23d
000001d0: 7c92 84bd f0d7 fd3d efd6 9c3b 5356 2f3e
000001e0: 8c21 053e ccaa 713e 9aef 043e 8d55 893d
000001f0: da46 f43d ece6 993e 114c 89bc 234f e53d
00000200: 59bc f0ba 2608 d4bd 7b72 5ebd a3ce 81bc
00000210: 9a00 83bd 9419 683c df3d 33be d489 a2be
00000220: 70e8 583e 75c1 c7bd 950b c4bd db59 ebbd
00000230: 5182 14be 3142 a53d a060 8d3d 5a50 303e
00000240: 7fef 1f3e 8a23 41be af25 a8bd 6f42 d6bd
00000250: 7c52 20be d383 e03d 8525 02bd 22c0 4f3d
00000260: fd87 a53d 6a01 2a3e e21f 733d 7f07 7dbe
00000270: aa6a 653e 0c46 c43d 2207 35be cdde 9fbe
00000280: 9088 84be 606c 5c3d 3ce1 49be 629d 403e
00000290: 5a9c cbbd ed34 2d3e 0e71 1fbd 2c3b 73bd
000002a0: d3fa 80be 75b6 213e e8b6 cbbb 4e33 ed3d
000002b0: 63c7 85bd fc4a 9ebd 16fb 15be b5c2 4abe
000002c0: b8a2 debd 71aa 11be e804 d33d ba26 3d3d
000002d0: c6d9 8fbb 519f 76be 0189 94bd 38eb 7bbe
000002e0: f4c6 093e 5752 d23d db78 9b3d a9da 1a3d
000002f0: bb55 69ba 19db 3f3e 24d5 443c 0c86 033e
00000300: 307c c5bd 67d8 da3a 7636 843d 7c5e 313d
00000310: 0f42 08bd 3758 183c d2de ce3c 577d debd
00000320: 1f28 283c 9911 1bbe dc22 9a3e c815 13bd
00000330: ce53 c93e 214e cbbd 1e9c 963e c16c b93d
00000340: 659d acbd 71a8 943c a1ef 803d 111d 08bd
00000350: 9251 aa3c cdf4 853d fe81 ee3d e6e4 2b3e
00000360: 8309 f0bd 38a2 a33e fc8f 303e 50cc a63e
00000370: 1f07 063e 562f de3e 03df aa3d 8166 933e
00000380: 52bb 123d 5b5d 4fbe de17 413e 6ab0 3a3c
00000390: eb0a cb3d b76c 083f c59a 2a3e 1253 b33e
000003a0: edd1 0d3e bc10 2e3e d500 29be fa51 29bc
000003b0: a3af a3be 82ad b63e e524 a43d 3993 ccbd
000003c0: 6858 4d3e 43ef 0b3e 4eaa 743e ad87 93bd
000003d0: 13bb 4b3d 245e 513e e43c 8d3e a943 15bc
000003e0: b098 96bd 0716 b1bd bdbc 5e3d bf3e 703e
000003f0: 7324 a23d a0e4 1c3e ce12 24be c0e0 dc3c

fc.weight f4 [1, 64]
-0.99792707 -1.1648505 1.3530273 -1.1022401 -1.1162732 -1.7079304 -1.0170996 -1.0554935
1.1766798 -2.3937073 1.143988 1.6039739 -1.1305534 1.0864546 -1.1487553 1.1669326
-1.7029436 -1.0878022 1.6277628 -1.0468808 -1.1418681 -1.2275076 2.3411236 1.7782695
-1.0335765 1.0897024 1.1255221 -1.0983039 1.1419178 -1.2555804 -1.1030834 -1.088218
-1.1467923 -2.83714 -1.0300723 1.1342791 -1.131737 0.98662466 1.2139947 -1.0741515
-1.1305335 1.1415265 1.139905 1.1283401 -1.4036062 1.2189474 -1.0779834 -1.4018825
1.9964522 -1.1765522 1.1053835 1.3005183 -1.0800183 -1.0415888 -1.2347338 -1.1245577
1.1601889 0.99262923 1.0631193 1.1856393 1.0983566 1.1056719 1.5944821 -1.8278557
00000000: 2678 7fbf d219 95bf 0030 ad3f 3416 8dbf
00000010: 0ae2 8ebf 779d dabf 5230 82bf 691a 87bf
00000020: 729d 963f 8032 19c0 336e 923f 044f cd3f
00000030: f9b5 90bf f210 8b3f 6a0a 93bf 0c5e 953f
00000040: 0efa d9bf 1a3d 8bbf 885a d03f 3100 86bf
00000050: bc28 92bf f81e 9dbf f8d4 1540 569e e33f
00000060: 3c4c 84bf 5e7b 8b3f 1c11 903f 3995 8cbf
00000070: 5d2a 923f dcb6 a0bf d631 8dbf ba4a 8bbf
00000080: 17ca 92bf b493 35c0 69d9 83bf 0f30 913f
00000090: c2dc 90bf 6f93 7c3f 2e64 9b3f cc7d 89bf
000000a0: 52b5 90bf 8a1d 923f 68e8 913f 736d 903f
000000b0: 5ea9 b3bf 7806 9c3f 5cfb 89bf e370 b3bf
000000c0: bf8b ff3f 4399 96bf 357d 8d3f 6277 a63f
000000d0: 0a3e 8abf c852 85bf c20b 9ebf 82f1 8fbf
000000e0: 1281 943f f31c 7e3f 4b14 883f 07c3 973f
000000f0: f396 8c3f a886 8d3f fd17 cc3f 2df7 e9bf

exp_avg f4 [11, 128]
-0.00067442586 -0.00036978896 0.0016561262 0.00067328755 0.00012072207 -0.001158607 -0.0011108969 0.00045784365
-0.0001860653 -0.0021607925 -0.0008465298 -0.001541229 -0.0016989821 0.0009711226 -0.00017137217 -0.00019155035
-0.00018585 -9.091348e-05 0.0010337748 -0.0002508814 -0.00050035527 0.0016988182 2.5681189e-05 0.0011323452
0.0004833629 -0.0001458321 0.00059754244 -0.00018931844 -0.0010330599 -0.00021189291 0.0014320057 -0.0017897702
-0.000917817 0.0009814667 -0.0019157748 0.0023376036 0.00065652176 -0.0010420254 -0.0020689117 0.0018271875
0.0005566827 0.0022865252 -0.0018970596 0.0009927661 0.0009859642 0.0033267022 -0.0004439924 -0.0002551992
-0.00045574462 0.0017546375 0.0010566292 0.0005054862 -0.0010591679 -0.00014535969 0.0011787998 -0.0008484404
-0.0016468576 -0.0006634146 -0.00027048896 2.373379e-05 -0.0010091441 -3.9321993e-05 -0.00075454864 0.00026822567
-0.0010664569 5.527479e-05 0.00011500165 -1.5227414e-06 -0.0011894926 0.0014408875 -0.0006785334 0.00032676532
-0.00064513733 -1.0860977e-05 -0.0007600924 -0.0023172505 0.00125598 -0.0010293025 -0.0005445239 0.0020951007
0.0009339548 0.0002328397 -0.0001724353 0.0009030094 -0.000153014 -0.0019230813 -0.0038010387 0.0029373756
0.0005285197 0.0015088413 0.0011561471 0.0019627518 -0.0026990166 -0.0012387458 0.00073940266 -0.0016346266
0.0013575476 -0.00048547104 0.0011891215 -0.0014642504 -0.0021597918 0.00030761355 -0.0005713062 -0.00028230564
0.00071060227 -0.0011988942 0.00014374302 0.00049171847 -0.0005646018 -0.00053198886 -0.0041190498 0.00091215747
0.00030078954 0.00028667558 -0.00014667466 -0.00025057155 -0.0005861643 -0.0012432776 -0.0016574868 2.3309123e-05
0.0012836653 0.0013240133 0.0016074785 0.00033113998 -0.00020872834 0.001920368 -0.00052328914 0.0003424214
-0.0011481257 0.0009844182 0.0007740366 0.0003228493 0.00060166925 -0.0009590944 -0.0018873585 0.0005834568
-0.0006883642 -0.0015762233 0.0014685672 0.00019418726 -5.6489418e-05 -0.0005459326 -0.0009039689 -0.00010898839
-0.0011895046 -0.0005087848 0.0014522796 0.0015862014 0.001397596 0.00017830961 9.98096e-07 -0.00025270318
0.0003431438 0.00012918655 0.0017641468 0.00063117 -0.00030955274 -0.0006815552 0.00065991614 -0.0015688504
0.000298147 -0.00083370355 -0.0010741662 0.0007908396 -0.00018576776 1.0183367e-05 2.2325648e-05 0.0014653878
0.0016661169 -8.5006526e-05 -0.000640689 0.0004931665 0.0018461224 0.0012331746 -0.00059514446 -0.00076239154
0.00040768177 0.0006702962 -0.00049357524 0.0019099133 -0.00038705405 0.0007759191 -1.1065589e-05 8.818782e-05
-0.00047210764 -0.000929321 5.560307e-05 -0.0016351192 -0.0010844865 -0.0005902333 0.0001914283 -0.0007714337
-0.0008117617 -0.00057847035 -0.0003951023 -0.0003400155 -0.0017503508 0.00043921228 0.00067438657 0.00011567716
0.00077730784 0.0010169954 -0.00076288555 -0.0026003707 -0.0006685781 9.467572e-05 -0.002031446 0.0008085975
0.00043332553 4.1740873e-06 -4.9375907e-05 0.0013471813 0.0005295819 -0.0017527575 -0.0019000601 -0.00010573763
0.00078933715 0.0008258157 0.0012777846 -0.00044358376 -0.00032576418 -0.000949678 0.001509409 -0.0009818655
0.00074718415 0.0006580151 -0.00037633107 -0.0007633235 -0.0014159456 0.00012758514 -0.00054446625 -0.0007104284
0.0013970187 -0.0010845327 -0.0006185895 0.00074799446 0.00031699086 -0.00071025215 -0.0015466271 0.000108765635
-0.00031418353 -0.00036286513 -0.0012921717 -0.0021184965 -1.6064274e-05 0.0006801812 -0.0009704668 -0.0011305172
0.0017274301 0.00024099379 0.0021258479 0.0021269498 -0.0006297244 0.00080604677 8.372885e-05 5.7487207e-05
00000000: f4cb 30ba 3ce0 c1b9 6012 d93a 907f 303a
00000010: 2b2c fd38 66dc 97ba 849b 91ba bc0a f039
00000020: 861a 43b9 159c 0dbb a7e9 5dba 1003 caba
00000030: 61b0 deba ef92 7e3a 5eb2 33b9 e8da 48b9
00000040: bbe0 42b9 cea8 beb8 ba7f 873a bb88 83b9
00000050: 462a 03ba e1aa de3a ef6d d737 336b 943a
00000060: df6b fd39 82ea 18b9 65a4 1c3a c883 46b9
00000070: bd67 87ba 922f 5eb9 23b2 bb3a b996 eaba
00000080: a899 70ba 8fa4 803a bc1a fbba 7b32 193b
00000090: 6e1a 2c3a 9294 88ba 9496 07bb 3d7e ef3a
000000a0: 58ee 113a 87d9 153b c2a6 f8ba b41f 823a
000000b0: 783b 813a cd04 5a3b a7c7 e8b9 42cc 85b9
000000c0: 02f1 eeb9 ddfb e53a 987e 8a3a 9b82 043a
000000d0: c7d3 8aba b26b 18b9 f581 9a3a df69 5eba
000000e0: 5fdb d7ba 00e9 2dba 6ad0 8db9 ed17 c737
000000f0: 4245 84ba abed 24b8 e7cc 45ba a4a0 8c39
00000100: 5bc8 8bba dbd6 6738 0a2d f138 ff60 ccb5
00000110: c0e8 9bba 29dc bc3a 9bdf 31ba b351 ab39
00000120: 6f1e 29ba 8b37 36b7 f040 47ba 03dd 17bb
00000130: b29f a43a a9e9 86ba 61be 0eba f54d 093b
00000140: a5d4 743a 6e26 7439 c0cf 34b9 efb7 6c3a
00000150: 6272 20b9 e70f fcba d91a 79bb fc80 403b
00000160: 5b8c 0a3a 50c4 c53a dc89 973a 83a1 003b
00000170: fce1 30bb 695d a2ba 79d4 413a f840 d6ba
00000180: bdef b13a d286 feb9 4cdc 9b3a 17ec bfba
00000190: 4b8b 0dbb 3147 a139 b6c3 15ba 6c02 94b9
000001a0: b647 3a3a 3724 9dba b9b9 1639 abe6 003a
000001b0: c901 14ba 2b75 0bba 18f9 86bb da1d 6f3a
000001c0: 4ab3 9d39 f24c 9639 aecc 19b9 255f 83b9
000001d0: d2a8 19ba 79f5 a2ba 0740 d9ba f687 c337
000001e0: a940 a83a 848a ad3a 07b2 d23a db9c ad39
000001f0: 16de 5ab9 dcb4 fb3a 572d 09ba 0687 b339
00000200: b57c 96ba 9807 813a b8e8 4a3a 1944 a939
00000210: 57b9 1d3a bc6b 7bba 3e61 f7ba 1ff3 183a
00000220: 5773 34ba 4799 ceba f07c c03a bf9e 4b39
00000230: 0def 6cb8 eb1c 0fba 53f8 6cba b290 e4b8
00000240: 27e9 9bba f85f 05ba 6b5a be3a 16e8 cf3a
00000250: 8a2f b73a 9ff8 3a39 51f6 8535 3f7d 84b9
00000260: fbe7 b339 4076 0739 f23a e73a 1a75 253a
00000270: 774b a2b9 65aa 32ba 39fe 2c3a e2a1 cdba
00000280: 9d50 9c39 e68c 5aba 09cb 8cba 5950 4f3a
00000290: a7ca 42b9 3ad9 2a37 f747 bb37 4112 c03a
000002a0: 9b61 da3a 8845 b2b8 e9f3 27ba d847 013a
000002b0: 97f9 f13a 79a2 a13a 7803 1cba 3bdb 47ba
000002c0: 1fbe d539 d1b6 2f3a 4663 01ba 0e56 fa3a
000002d0: 84ed cab9 0d67 4b3a 58a6 39b7 7af1 b838
000002e0: 3785 f7b9 ad9d 73ba 5837 6938 7f51 d6ba
000002f0: 5425 8eba e3b9 1aba 25ba 4839 0a3a 4aba
00000300: 68cc 54ba 7da4 17ba bc25 cfb9 1c44 b2b9
00000310: 076c e5ba 1346 e639 51c9 303a b497 f238
00000320: 3fc4 4b3a b44c 853a 62fc 47ba fb6a 2abb
00000330: 8443 2fba a48c c638 0222 05bb 0ff8 533a
00000340: f82f e339 230f 8c36 fa18 4fb8 e793 b03a
00000350: a4d3 0a3a c8bc e5ba 700b f9ba 75bf ddb8
00000360: 85eb 4e3a 8e7b 583a 567b a73a ce90 e8b9
00000370: 54cb aab9 d0f3 78ba 5dd7 c53a f0b1 80ba
00000380: aede 433a a57e 2c3a 4d4e c5b9 c619 48ba
00000390: 4097 b9ba 60c8 0539 83ba 0eba 0b3c 3aba
000003a0: 2b1c b73a e126 8eba d728 22ba 0f15 443a
000003b0: cb31 a639 3730 3aba 32b8 caba 1b19 e438
000003c0: 00b9 a4b9 ef3e beb9 165e a9ba 79d6 0abb
000003d0: c4c1 86b7 304e 323a ed66 7eba dd2d 94ba
000003e0: f06a e23a 47b3 7c39 cf51 0b3b 4c64 0b3b
000003f0: 1714 25ba e24c 533a 9697 af38 6b1e 7138

exp_avg_sq f4 [11, 128]
4.910046e-05 4.646411e-05 0.00040552916 6.3428693e-06 2.0851854e-05 8.714151e-05 2.8048706e-05 3.3816314e-06
4.725055e-05 0.00034490667 2.7482589e-05 0.00042201477 0.00039134274 0.00018058594 2.5798981e-05 9.014651e-05
7.3225856e-05 1.5798812e-05 0.00019000194 8.422216e-06 8.441991e-05 0.0001974183 3.3471646e-05 4.5844274e-05
1.7803439e-05 4.8048896e-06 9.495576e-05 5.9971862e-05 8.279619e-05 3.3594068e-05 0.00034851604 7.289923e-05
4.0003502e-05 0.0001253813 0.00038180687 0.00042157335 2.782133e-05 0.00021711436 0.00030033747 0.00029003748
3.895502e-05 0.00054981885 0.0001554338 5.2893552e-05 9.793252e-05 0.0010465707 4.7778867e-05 8.638679e-05
7.432336e-05 0.00020494555 0.00015670115 9.788452e-05 0.00020170028 3.2453468e-06 0.00013257697 0.00010476227
0.00016848033 4.787525e-06 8.787977e-06 1.4377961e-05 7.902969e-05 3.5754742e-06 1.2927346e-05 1.840242e-05
0.00016511267 7.534589e-06 9.504555e-05 1.1059413e-05 5.983738e-05 0.0003794248 0.00010444653 5.7459412e-05
7.36814e-05 4.449884e-06 0.00011772632 0.00046765554 8.5025735e-05 0.00016210637 2.1066271e-05 0.00028648303
4.9058664e-05 3.2577445e-05 1.2909234e-05 3.6871894e-05 2.6943198e-05 0.00021966707 0.0008883938 0.0006650283
3.384971e-06 0.00018883908 0.00015086748 0.0002336298 0.00023812856 0.00014586812 0.00016893027 0.00017792288
5.1162086e-05 1.7801702e-05 0.0002889273 0.0002177608 0.00029732267 0.00010040299 0.0001029315 3.5462144e-05
7.2523912e-06 0.00020238469 1.8826622e-05 7.019106e-05 7.3750656e-05 2.610445e-05 0.0014624856 0.00014935441
4.9715e-06 3.8247017e-05 1.9336478e-05 9.406088e-05 0.00012070283 6.8702364e-05 0.0002416371 1.7890261e-05
0.0001310604 0.00017583967 0.00023998214 9.27183e-05 4.1011976e-06 0.0003137573 1.2361607e-05 2.746268e-05
0.0001360634 2.6658365e-05 0.0001580451 1.7904504e-05 1.9398482e-05 0.0002351934 0.0006762107 2.4312758e-05
3.763978e-05 0.00011690991 3.9559895e-05 0.00033072295 0.00018365096 6.5275424e-05 0.00010576571 3.526571e-05
8.71598e-05 1.9308234e-05 9.751389e-05 0.0001000446 7.3537034e-05 3.568155e-05 9.141101e-05 0.00018380498
5.4289267e-05 1.9344996e-05 0.00016182268 9.614416e-05 6.632798e-05 9.082508e-05 6.387193e-05 0.00024183538
4.220038e-05 6.9366615e-05 6.086023e-05 0.00016737792 0.00011753323 5.7004476e-05 9.665745e-05 0.00037003768
9.0157504e-05 0.0001592044 8.39755e-05 5.042052e-05 5.3370575e-05 0.00045416312 4.4386088e-05 6.996189e-05
3.2549317e-05 0.00032723814 6.521097e-05 6.48015e-05 0.00014427835 2.3655311e-05 2.9286419e-05 1.8878934e-05
0.00036631752 4.0723215e-05 5.2594382e-06 5.3632095e-05 2.88061e-05 2.5678051e-05 0.0001565501 5.879527e-05
5.681215e-05 2.3820921e-05 5.502636e-05 6.086574e-06 0.00010524445 0.00024056387 0.00020920901 5.6341698e-05
0.0002844732 0.00014339224 2.5698748e-05 0.00058200984 3.8997736e-05 0.00017456665 0.0004754327 0.00010198879
0.00025684957 7.680234e-06 5.730675e-05 0.00010474366 5.0504845e-05 0.00028470194 0.00036683152 0.00034493636
0.00017088569 3.4434448e-05 0.00013737017 0.00033798045 0.00013509957 0.00021323755 2.9641824e-05 0.00017315942
0.00017267218 3.322605e-05 4.605028e-05 5.2778705e-05 0.00016597396 7.747301e-05 1.905417e-05 7.770528e-05
6.457411e-05 6.150308e-05 8.5838044e-05 4.059939e-05 2.5765194e-05 4.599266e-05 0.0008007534 0.00018405115
1.7587095e-05 0.0001034568 5.5565957e-05 0.00013239666 4.247706e-05 7.7122284e-05 0.00022891111 6.619444e-05
0.0001502724 5.7897418e-05 9.383305e-05 8.965657e-05 3.348092e-05 0.00034515682 6.563991e-06 1.897743e-05
00000000: 38f1 4d38 75e2 4238 349d d439 d5d4 d436
00000010: 04eb ae37 bebf b638 234a eb37 fcef 6236
00000020: e42e 4638 97d4 b439 698a e637 dd41 dd39
00000030: 222d cd39 ab5b 3d39 e46a d837 0a0d bd38
00000040: d590 9938 b187 8437 423b 4739 244d 0d37
00000050: 980a b138 1202 4f39 e863 0c38 ea48 4038
00000060: 9858 9537 b039 a136 fc22 c738 4c8a 7b38
00000070: dea2 ad38 5be7 0c38 08b9 b639 7ae1 9838
00000080: 6fc9 2738 c978 0339 402d c839 9e06 dd39
00000090: da61 e937 31a9 6339 9d76 9d39 2c10 9839
000000a0: a263 2338 b821 103a f1fb 2239 05da 5d38
000000b0: 1f61 cd38 162d 893a 2b66 4838 8e2a b538
000000c0: 0dde 9b38 a7e6 5639 2550 2439 5a47 cd38
000000d0: 827f 5339 a2ca 5936 5c04 0b39 d1b3 db38
000000e0: 18aa 3039 87a4 a036 1370 1337 df38 7137
000000f0: bebc a538 2ef2 6f36 87e2 5837 e55e 9a37
00000100: 1822 2d39 a0d1 fc36 3153 c738 d18b 3937
00000110: e6f9 7a38 89ed c639 4e0a db38 9300 7138
00000120: 6785 9a38 3650 9536 d6e3 f638 aa2f f539
00000130: d84f b238 19fb 2939 79b7 b037 1a33 9639
00000140: 57c4 4d38 c4a3 0838 bd94 5837 e5a6 1a38
00000150: 1404 e237 6e56 6639 19e3 683a 4b55 2e3a
00000160: 5c29 6336 1b03 4639 2e32 1e39 86fa 7439
00000170: 26b2 7939 2df4 1839 e022 3139 cf90 3a39
00000180: df96 5638 dd54 9537 2a7b 9739 b856 6439
00000190: f9e1 9b39 728f d238 eedc d738 30bd 1438
000001a0: 9159 f336 3a37 5439 dded 9d37 8a33 9338
000001b0: 95aa 9a38 e1fa da37 e0b0 bf3a 059c 1c39
000001c0: dcd0 a636 6c6b 2038 c534 a237 8d42 c538
000001d0: d721 fd38 4d14 9038 f75f 7d39 0b13 9637
000001e0: 426d 0939 9a61 3839 b7a3 7b39 c271 c238
000001f0: 059d 8936 cb7f a439 b364 4f37 a85f e637
00000200: 3eac 0e39 67a0 df37 e9b8 2539 a131 9637
00000210: ecb9 a237 3f9e 7639 bb43 313a 40f3 cb37
00000220: 68df 1d38 882d f538 1ded 2538 e264 ad39
00000230: 6e92 4039 7ae4 8838 88ce dd38 45ea 1338
00000240: 90c9 b638 1ef8 a137 5f80 cc38 09cf d138
00000250: e537 9a38 c6a8 1538 eab3 bf38 c6bb 4039
00000260: a8b4 6338 1047 a237 f2ae 2939 01a1 c938
00000270: 9019 8b38 5879 be38 fbf2 8538 3195 7d39
00000280: 5000 3138 eb78 9138 2d44 7f38 2b82 2f39
00000290: 2c7c f638 1718 6f38 93b4 ca38 9e01 c239
000002a0: f112 bd38 1bf0 2639 011c b038 9f7a 5338
000002b0: 38da 5f38 be1c ee39 332b 3a38 81b8 9238
000002c0: 9085 0838 2991 ab39 dfc1 8838 0ae6 8738
000002d0: 6d49 1739 656f c637 1bac f537 345e 9e37
000002e0: 4e0e c039 38ce 2a38 3b7a b036 06f3 6038
000002f0: a1a4 f137 3267 d737 9927 2439 f19a 7638
00000300: 9549 6e38 0ad3 c737 1bcc 6638 463b cc36
00000310: afb6 dc38 df3f 7c39 1e5f 5b39 7050 6c38
00000320: 5925 9539 905b 1639 a493 d737 0592 183a
00000330: 8091 2338 e10b 3739 7f43 f939 d1e2 d538
00000340: c4a9 8639 5bda 0037 a75c 7038 d3a9 db38
00000350: 2ad5 5338 0c44 9539 4b53 c039 93d8 b439
00000360: c72f 3339 b56d 1038 060b 1039 f832 b139
00000370: 84a9 0d39 8598 5f39 55a7 f837 2192 3539
00000380: 560f 3539 335c 0b38 1d26 4138 b45e 5d38
00000390: 4c09 2e39 0179 a238 85d6 9f37 b4f5 a238
000003a0: f66b 8738 37fb 8038 f303 b438 4349 2a38
000003b0: 5522 d837 3ee8 4038 a7e9 513a dbfd 4039
000003c0: 0088 9337 f2f6 d838 7e0f 6938 f5d3 0a39
000003d0: 6529 3238 b6bc a138 dc07 7039 dfd1 8a38
000003e0: 7192 1d39 e1d6 7238 3cc8 c438 0106 bc38
000003f0: dd6d 0c38 2af6 b439 4140 dc36 b831 9f37
