model_deepsets.pth.tar (torch, 120952 bytes, 12 tensors)

embedding.weight f4 [11, 128]
000000 20 f3 6c 3d 81 54 c4 bd 77 7d 22 c0 21 52 12 c0
       0.05784905 -0.0958643 -2.5389078 -2.2862628
000010 bb 23 b9 bf ab 48 1b 3f 5b 46 7b bf 9b 13 f6 be
       -1.4464029 0.6065776 -0.9815423 -0.48061833
000020 35 5c 93 bf df 9a 88 be 7e fe 86 3f 74 7c 41 3f
       -1.1512514 -0.26680657 1.0546415 0.75580525
000030 c3 f5 70 bf e0 bb 2d c0 4f f0 ac bf 0c 5f 2f c0
       -0.94125 -2.714592 -1.3510836 -2.7401762
000040 f1 bb 1d 3f 96 ee b7 bf 55 83 0f 40 72 60 da bf
       0.616149 -1.4369686 2.2423909 -1.7060683
000050 ea 7a 40 3f 29 0a 98 3e 88 3b 81 3d 59 a6 00 c0
       0.7518755 0.29695252 0.06310183 -2.010153
000060 98 74 4f 3f dc 85 0b 3e c6 e8 36 40 d0 ab be 3e
       0.8103728 0.13625282 2.8579574 0.37240458
000070 d2 c8 5a bf 5f b6 07 bf 93 7a 18 3f 9a b3 0f 3f
       -0.8546268 -0.5301265 0.59562033 0.56133425
000080 b5 e7 c6 3e 64 c1 18 3e 4c 1f f2 be c7 7e 06 bf
       0.38848653 0.14917523 -0.47289503 -0.52537197
000090 88 57 46 3d 5e e2 b2 3f cb 1a bd bf 27 67 d0 3f
       0.04842332 1.3975332 -1.4773802 1.628148
0000a0 bc 8f 10 bf d5 3e 0d 3f 97 62 9e bf 0e 36 78 3f
       -0.5646932 0.55174 -1.2373837 0.9695748
0000b0 de 06 51 3e 49 c2 6d bf 30 a9 bb be 2b 58 96 bf
       0.20412776 -0.9287458 -0.36652517 -1.1745657
0000c0 96 8e ba 3e d7 55 9c 3f fb 5d 2e 3f 1e 93 a6 3f
       0.3643691 1.2213696 0.6811215 1.3013647
0000d0 a8 0f 4d 3e 22 60 2b 3d c7 1d 4b be 06 7e 74 bf
       0.20025504 0.041839726 -0.19835578 -0.95504797
0000e0 4e fa d6 3d 75 31 d9 bf 57 25 eb bc d7 53 86 3e
       0.104969606 -1.6968218 -0.028704328 0.2623584
0000f0 35 0c 87 bf bb 3d 42 3f 7a 1c 15 3f d2 4e a0 be
       -1.05506 0.75875443 0.58246577 -0.31310135
000100 0f 6e 36 3d 5a 73 84 3f e6 7f 3f 3f e3 88 84 bf
       0.044538554 1.0347703 0.7480453 -1.0354275
000110 11 26 a9 3e 42 1a e5 bf 21 bb 1d 3e 9d c6 aa 3e
       0.33036855 -1.7898638 0.15403415 0.33354655
000120 a7 94 dc 3f e0 0b 2f 3f 86 71 0a c0 5f 6d dd 3e
       1.7232865 0.68377495 -2.163179 0.43247506
000130 07 91 0a c0 4b 98 cd bd 14 14 c1 3f 04 29 19 3f
       -2.1651018 -0.10038813 1.5084252 0.5982821
000140 5e 9a 9e bf 42 56 59 be 86 d9 80 bd 28 45 dc be
       -1.2390859 -0.21224311 -0.06291489 -0.43021512
000150 81 18 70 bd d3 b3 c2 bf 2a 6b 6f 3f e6 ba 18 40
       -0.05861712 -1.5211128 0.93522894 2.3864074
000160 3e 9c 87 c0 10 ab 18 40 b5 e0 2d 40 5c 76 0b 3f
       -4.2378225 2.3854408 2.71684 0.5447748
000170 b0 0f d3 be 42 a7 b6 bf 8d d6 b1 bf 06 71 8f be
       -0.41222906 -1.4269793 -1.3893601 -0.28015918
000180 db 24 ba be 92 93 4e bf 5f 04 a0 3f 0f c4 d7 3d
       -0.36356243 -0.80693924 1.2501334 0.10535442
000190 98 c6 07 bf ab df a1 bf a0 a5 0a 3d b0 d1 4f c0
       -0.53037405 -1.2646383 0.03384936 -3.2471733
0001a0 71 14 6f bf c0 6c d1 be c3 a5 b0 3e 05 17 66 3f
       -0.93390566 -0.40903282 0.34501466 0.89878875
0001b0 76 af 3c c0 d8 96 04 bf 66 38 fa be db 2e 83 3f
       -2.9482093 -0.5179267 -0.48871154 1.0248674
0001c0 4d c2 8f bc 01 b0 c3 3f 4c b9 e7 3e f1 b8 ca bd
       -0.017548705 1.5288087 0.45258558 -0.09898556
0001d0 e3 8c 13 3f 13 dd 6c bf e4 ab 94 bf 04 f7 d4 3f
       0.5763685 -0.9252483 -1.1614957 1.6637883
0001e0 80 b3 a4 3f dd cf 84 3e cb 80 6c 3e 86 df 12 40
       1.2867279 0.25939837 0.23096006 2.2948928
0001f0 4f d9 23 3e 08 73 25 40 2c 2e 7f 3f 44 e5 dc be
       0.16000865 2.585146 0.9967983 -0.43143666
000200 f4 ae 3f bf 6b 84 cb 3e 14 ca 32 3f f0 b3 49 3e
       -0.7487633 0.39749464 0.69839597 0.19697547
000210 8b b1 58 bf e3 1e 19 bf 4d 44 34 bc 47 b8 17 40
       -0.8464591 -0.59812754 -0.011002612 2.3706224
000220 1e 09 de 3d 26 e0 91 be a9 bc 02 c0 5a 87 3e bf
       0.10841583 -0.28491324 -2.042765 -0.7442528
000230 cd d0 65 3e 72 86 75 be 93 8e 6f bf a5 ed 8e 3e
       0.22442932 -0.23977068 -0.93576926 0.27915683
000240 0a 04 97 bd 12 27 be 3d 64 f0 9f 3f 59 fe 3a bf
       -0.07373817 0.09284796 1.2495236 -0.73044354
000250 90 a9 69 3e 96 70 6c bf cf c6 de bf e8 9b f6 bf
       0.22818589 -0.9235929 -1.7404422 -1.9266329
000260 4a 4f d6 bf ec af 14 bf 67 b8 05 3f f0 b7 6b 3f
       -1.6742947 -0.58080935 0.522345 0.9207754
000270 c6 96 b8 bf 03 18 64 bf 02 98 50 bf 46 33 39 be
       -1.4421012 -0.8909914 -0.81481946 -0.18085966
000280 b1 34 bc bf 39 10 87 3f fb cf 12 40 b7 73 7d bf
       -1.470358 1.0551826 2.2939441 -0.9900469
000290 e1 16 e5 be 29 2b 90 3f b0 1c 14 bf 38 5e b2 bf
       -0.44744018 1.1263171 -0.57856274 -1.3935003
0002a0 c1 cb ba 3e 4f 76 ba bf ed b3 07 3f 1f 49 3e bf
       0.36483577 -1.4567355 0.5300892 -0.74330324
0002b0 12 81 0d c0 31 75 87 3f e6 74 c6 bf 95 6e c0 3f
       -2.2110028 1.0582639 -1.5504425 1.5033747
0002c0 81 00 a1 3f c4 ab 3d 3f c2 f1 26 be aa 7b d9 bd
       1.2578279 0.7409022 -0.16303161 -0.1061929
0002d0 0f 37 8b 3c 89 98 9a 3f 14 a7 ed be 3f 23 dc bd
       0.016994027 1.20778 -0.46416533 -0.1074891
0002e0 42 05 59 3e 52 d4 55 3f 71 0f e4 bf 37 07 59 bf
       0.21193412 0.835271 -1.7817212 -0.84776634
0002f0 b2 4b 6c 3f c4 93 e3 3f 18 78 2a bd f6 bc d8 3f
       0.92303 1.777947 -0.041618437 1.6932666
000300 43 55 20 be 96 20 62 3e 18 e8 d5 3e 89 5c e0 3f
       -0.15657525 0.22082743 0.41778636 1.752824
000310 44 be 61 3e 8e 60 6a c0 c5 18 89 40 09 17 2b bf
       0.22045237 -3.6621432 4.2842736 -0.66832024
000320 c0 46 c2 bf 1d a0 c1 3e ce 45 17 be ee 48 fe 3e
       -1.5177841 0.3781747 -0.14772722 0.49665016
000330 75 22 df bd 6e 55 44 3f 19 bc 04 3e 85 0e 20 be
       -0.10895244 0.76692855 0.12962379 -0.15630539
000340 7d 38 a3 bf 80 b2 cc 3e cc 2c 13 40 89 8b 32 40
       -1.2751614 0.39979935 2.2996092 2.7897666
000350 f0 43 ba 3e 89 2f 17 bf ad ae e7 be 79 be e2 be
       0.36379957 -0.5905691 -0.45250455 -0.44285944
000360 ea ad 84 3f 1e 94 5e bf 41 84 b1 bd 7c 62 71 3f
       1.0365574 -0.8694476 -0.086678036 0.942909
000370 b6 b8 42 be 02 7f b3 3e e0 b1 ad 3f 9c 6c b8 bf
       -0.19015774 0.35057837 1.3569908 -1.4408145
000380 0f 68 e1 bf bb 2e 20 3f ea 88 9d bf 75 88 02 bf
       -1.7609881 0.62571305 -1.2307408 -0.50989467
000390 13 29 89 3f c2 ce 6c bf 2c 69 b5 be bb 65 7d 3d
       1.071566 -0.9250299 -0.35431802 0.061864596
0003a0 6a 43 cb 3d 52 1c 93 bf df 4e c5 bf 22 65 13 3f
       0.099249676 -1.1493018 -1.5414695 0.5757619
0003b0 65 16 9a 3f 02 d9 32 bf 62 3a 52 be 92 c3 61 3e
       1.2038084 -0.6986238 -0.20530084 0.2204726
0003c0 a2 98 9e bf 6a 38 b1 3e 11 db 80 3e b7 09 42 3f
       -1.239033 0.34613353 0.25167134 0.75796074
0003d0 75 5a 87 3f ad 36 96 3f 5c 0c 38 bf 6b 03 1e 3c
       1.057448 1.1735436 -0.7189386 0.00964437
0003e0 f1 e1 dc 3f 52 71 06 bd 55 b8 46 3e 81 12 14 3e
       1.7256452 -0.032822914 0.19406255 0.14460184
0003f0 6b b4 9a bd 92 67 88 3f ec f9 6f 3f 5b 91 24 bf
       -0.07553943 1.0656607 0.93740726 -0.64284295

fc1.weight f4 [64, 128]
000000 ab 76 20 be 0c aa 37 be 68 25 6f 3d e3 d7 10 3e
       -0.15670268 -0.17935961 0.058385283 0.14144854
000010 ab 21 67 3d 07 4b 28 be 6c ef 6f 3c d8 48 8f 3e
       0.056428593 -0.1643487 0.014644485 0.27985263
000020 56 7e 65 3e 35 4f 8a 3e 23 c4 4c be bf 26 5b be
       0.22411475 0.27013555 -0.19996695 -0.21401499
000030 26 ba ad 3d 85 b9 33 bd 98 a4 d0 bd 65 97 c7 3d
       0.084827706 -0.043878097 -0.10187644 0.09745673
000040 e0 43 22 3e ab e4 86 3d a6 ab 42 3c bd f4 9d bd
       0.15846205 0.06586584 0.0118817445 -0.07712696
000050 4e 42 b4 3d 8d b2 a7 3d 78 71 14 be da f5 29 3d
       0.08801709 0.08188353 -0.1449641 0.041494228
000060 d9 b7 d1 bd 46 1e 3e 3e a0 9a 6c bd 34 53 63 bd
       -0.10240144 0.18566236 -0.05776465 -0.05549927
000070 ed 2a 9d bd c8 e2 4d bd ef 50 2f 3d 8f 3b 5c be
       -0.07674203 -0.050265104 0.042801794 -0.21507095
000080 08 d9 57 bd a2 2c 89 3e 37 f4 3e bc 3d 0c 1e 3e
       -0.05269721 0.26791865 -0.011654905 0.15434356
000090 85 ac 14 3e 93 16 05 be 31 75 33 3e 27 ff 08 3d
       0.14518936 -0.12996893 0.17525174 0.033446457
0000a0 af b9 46 3d 5e f8 8a be b7 ed 0b bc fb fc 3d 3e
       0.048516925 -0.27142614 -0.008540562 0.18553536
0000b0 4c f3 82 bd e1 8d ee 3a b5 11 85 3d b6 c8 44 3e
       -0.063940614 0.0018200242 0.06497518 0.1921719
0000c0 69 62 41 3d bf 47 de 3d e3 a6 c1 3d cc 05 5a 3e
       0.047212992 0.10853528 0.09455659 0.21291274
0000d0 e2 61 7f 3d 1e cc 9d 3d 06 6d 44 bd 36 c2 02 3d
       0.062349208 0.07704948 -0.047955535 0.031923495
0000e0 8c 9d 35 3d b1 20 b2 3c 55 f7 4c bd 58 4e cd bd
       0.0443397 0.021744104 -0.05004056 -0.100247085
0000f0 63 30 69 3e 0f 9d 65 3a b6 90 86 bd 29 20 44 3e
       0.22772364 0.00087590603 -0.0657057 0.19152893
000100 f5 ee f8 bd 68 ab dd 3c c1 d5 02 bd 4d 85 67 3e
       -0.121549524 0.027059272 -0.031942133 0.22609444
000110 cb a6 2e be 9a d5 e0 3d 9a 77 27 3e 70 b1 c0 3d
       -0.17055814 0.10978241 0.16354218 0.094088435
000120 e5 28 92 bd 8c b0 47 3d 9a 78 8f bd f9 e8 47 3e
       -0.07136706 0.048752353 -0.07005425 0.19522466
000130 1d 6d 2f 3e f9 73 38 3d 57 66 f5 bd d2 54 03 3d
       0.17131467 0.045032475 -0.119824104 0.032063313
000140 2a 11 0e bd 02 e7 68 3d e6 c9 5b 3d d1 76 34 3e
       -0.034684338 0.05686093 0.053659342 0.1762345
000150 3e b4 35 3e c0 0a c5 3b af 62 98 bd 5a 9a 17 be
       0.17744538 0.0060132444 -0.074406974 -0.14804974
000160 69 51 ba 3d f1 cd 2c be 0c 66 e3 bd 00 38 84 3d
       0.09097559 -0.16875435 -0.11103448 0.06455994
000170 07 cc 01 be bf e8 06 3e 25 88 a8 3d d8 4c 9b 3d
       -0.12675487 0.13174723 0.082290925 0.07583016
000180 fc 81 46 be 78 dc f5 3d 61 53 90 bc 72 a4 4b bd
       -0.19385523 0.12004942 -0.017617883 -0.049717374
000190 a8 0d e4 bb dd 7e ea bc 24 e4 0e 3e ae 3d 62 bd
       -0.0069596358 -0.028624946 0.13954216 -0.055234604
0001a0 ca e9 1b 3e d4 b6 4d be 8f 85 0c 3e 82 2b a1 3d
       0.15225902 -0.20089275 0.13722824 0.078696266
0001b0 2e 95 73 3e 71 00 14 3e 30 ec 84 bd 76 9d 3d bd
       0.23787376 0.14453293 -0.06490362 -0.046292745
0001c0 06 76 82 3d 3d a5 8d bd 33 7f 40 bb 2e 39 bd bd
       0.063701674 -0.06916282 -0.0029372692 -0.09239422
0001d0 66 39 df bd ba b0 26 be e9 d1 10 be fe 25 aa bd
       -0.1089962 -0.16278353 -0.14142574 -0.08308028
0001e0 91 7c 6a be 4b 4a 8a bd dd 38 c5 3d 8c 2d 40 bb
       -0.22899081 -0.067524515 0.096299864 -0.0029324023
0001f0 b0 8d 06 be ed 5a 98 bd e1 82 8a bd 1f 7e b3 3d
       -0.13139987 -0.07439218 -0.067632444 0.0876429
000200 ed 41 a7 bd 29 06 fc bd 0d bb 8a bd e8 f5 1d 3e
       -0.08166871 -0.123058625 -0.06773958 0.15425837
000210 cf ed b3 3d 69 36 88 3c bc 41 03 3e 13 dd 02 3e
       0.08785593 0.016627507 0.12818044 0.12779646
000220 37 9e e0 3c f7 50 9a ba 33 da 88 bc ed 28 49 3a
       0.027419193 -0.0011773397 -0.016705608 0.000767364
000230 11 a9 a8 bc 9e d4 a0 bc 9c de 7f bc e2 14 cb 3d
       -0.02058843 -0.019632634 -0.015617039 0.099160925
000240 54 5d ab bd c0 c8 ad 3d dd b7 4a bd 45 87 09 bd
       -0.0836741 0.08485556 -0.049491752 -0.03357627
000250 ce 1a a7 3d 85 47 a3 3d 2e b0 25 bd ed 06 f0 3d
       0.081594095 0.07972626 -0.04045122 0.11720071
000260 a6 0f 0d 3c 92 33 9e 3d d1 da 4c bd 9a f0 01 be
       0.008609688 0.0772468 -0.050013367 -0.12689438
000270 a5 db be 3c de 1c 51 3c ee f9 94 3d 47 8e 7e bd
       0.023298094 0.01276323 0.07274233 -0.062147405
000280 a0 c9 ed 3d 00 7e b4 bc aa c1 d8 bd ad 4c 12 3e
       0.116107225 -0.022032738 -0.105838135 0.14287062
000290 41 1d 45 3e ba 56 0e be ff 71 fd 3d b6 e3 ac 3d
       0.1924944 -0.13900271 0.12375259 0.0844187
0002a0 85 b1 29 be 7b b5 91 bd bf 65 5c 3c 76 de 00 be
       -0.16571625 -0.07114693 0.0134519925 -0.12584862
0002b0 93 da ae ba 66 66 f5 bd 33 17 ed 3d 6c 89 80 bd
       -0.0013340287 -0.119824216 0.115766905 -0.06276211
0002c0 5d 14 29 be 5d d1 af 3d 13 33 af 3d c3 5b c5 3d
       -0.16511674 0.08584855 0.085546635 0.09636643
0002d0 8d 60 00 be b3 c7 3b be 85 0f 14 3e 19 90 7f 3c
       -0.12536831 -0.18337898 0.14459045 0.01559832
0002e0 65 82 7d 3d 45 5a 4c 3d 01 d4 55 3d 9d 0d 0c 3e
       0.061891932 0.049890775 0.052204136 0.13677068
0002f0 ca ae 3a 3e 57 56 5a be 7a 0d e9 bd de df 8d 3d
       0.18230739 -0.21321999 -0.113795236 0.06927465
000300 2a d0 81 bd 70 54 bd 3d 77 87 8e bc 10 4d 4c 3d
       -0.06338532 0.09244621 -0.017398579 0.04987818
000310 b5 65 ea bd fa 74 2d 3e 7d ef a4 bd 79 8e 61 3d
       -0.1144518 0.16939154 -0.08053491 0.055067513
000320 13 99 9c bd fb 9b 9c bc 72 bd 27 3d 38 af 14 3d
       -0.07646384 -0.019117346 0.040952154 0.036299914
000330 ad b2 23 3e fe 61 e4 bc 6f 74 8f bd b4 94 21 3e
       0.15986128 -0.027878758 -0.0700463 0.15779382
000340 d6 31 b6 bd e8 68 39 3e 2f 24 8c 3d 05 53 9f bd
       -0.08896224 0.18106425 0.06842839 -0.077795066
000350 e2 57 61 3d 89 13 f9 3d 83 6a 27 be b9 08 05 3e
       0.055015452 0.12161929 -0.16349225 0.12991609
000360 82 74 f3 3d 59 29 d1 bc 63 d5 27 be 46 b2 6a 3d
       0.118874565 -0.025532411 -0.16389994 0.05729892
000370 c1 00 2c be ef 93 02 3e ac d3 0d 3e ac de 44 3e
       -0.16797163 0.12751745 0.13850278 0.19225568
000380 9c cf 89 bd 7d 20 a7 3d a1 e9 18 3e f6 cb 16 bd
       -0.067290515 0.081604935 0.14932872 -0.036815606
000390 d5 96 f0 bc 9f bf 74 3d ed 22 bc 3d 1c 84 db 3b
       -0.029368797 0.059753057 0.09186349 0.0066990983
0003a0 f2 f5 51 3e cf c0 d8 bc 47 3b 22 3e 78 14 1f 3e
       0.20503977 -0.026459126 0.15842925 0.15535152
0003b0 d7 e7 47 3d 0e ad 83 3d f3 ee c5 bd 66 bd 80 bd
       0.048805084 0.06429492 -0.096647166 -0.06286125
0003c0 4a 26 43 3e 54 15 1b bd 71 66 e6 3d a3 20 36 3d
       0.19057575 -0.037862137 0.11250008 0.04446472
0003d0 4a 25 f9 bd dc 24 f3 bd 81 db 8e 3d 7f c8 4c be
       -0.121653154 -0.11872265 0.06975461 -0.19998358
0003e0 bb f7 1e be 00 c8 4b bd eb 12 3b 3e e9 76 39 be
       -0.15524189 -0.04975128 0.18268935 -0.18111767
0003f0 c4 85 38 be e0 89 3f be 93 6b 05 bd 90 c2 17 3b
       -0.18019778 -0.18704939 -0.032573294 0.002315674

fc1.bias f4 [64]
000000 91 09 95 bd f5 6a 2f be a0 79 3f 3e 7f 5d 05 be
       -0.07277215 -0.17130645 0.1869874 -0.13023947
000010 c9 b4 12 be 1d 75 19 be ab 7c c6 bd 45 1f 28 be
       -0.14326777 -0.14986081 -0.09691747 -0.16418178
000020 96 4e 0c be b1 a5 3b 3d 6a f1 c8 3d 87 17 bc bd
       -0.13701853 0.045812313 0.09811671 -0.09184175
000030 35 7a 1b be c0 c1 4e 3c 73 25 0d 3e 1d af 8e 3c
       -0.15183337 0.012619436 0.13783817 0.017417485
000040 84 38 d9 bd 9b 19 94 bd 58 10 aa bb d1 70 18 3d
       -0.106064826 -0.07231446 -0.0051899366 0.037216965
000050 7d 2c 40 bd 79 72 c7 bd e1 32 52 3e 7d 14 eb bd
       -0.046917427 -0.09738631 0.20527221 -0.11478517
000060 52 7c 44 3e 96 36 9a bd 2e 28 e6 bd f7 e4 66 3d
       0.1918805 -0.07529943 -0.112381324 0.0563707
000070 14 d6 91 bd a1 48 03 be 46 9d 89 3d ce 77 9b bd
       -0.0712091 -0.12820674 0.06719451 -0.0759121
000080 e1 d8 2c be ac 6f 0f bd 9e 23 b1 bd d2 74 3f be
       -0.16879608 -0.035018608 -0.086493716 -0.18696907
000090 04 2e 28 3e 94 b7 06 3e e9 70 a9 3b ee cd 5c bd
       0.16423804 0.13155967 0.0051709306 -0.053907327
0000a0 b9 a3 c3 bb 0d 73 16 3e bb 4d fb bb 76 94 1e 3d
       -0.005970445 0.14692326 -0.0076691783 0.038715802
0000b0 24 71 20 3e 21 dc 39 be 45 00 28 be 10 41 0a be
       0.1566816 -0.18150379 -0.16406353 -0.13501382
0000c0 99 12 59 3e cf bf 47 be ad fe 08 be a8 05 8a bd
       0.211985 -0.19506763 -0.13378401 -0.0673936
0000d0 d2 8d a0 3d d6 fa 2d bd 94 b8 cf 3d 30 e0 2e 3e
       0.0783955 -0.042475544 0.10142627 0.17077708
0000e0 9f 24 9d bd 57 47 e0 bd 84 80 43 3e b9 ca 3e be
       -0.076730005 -0.10951107 0.19091994 -0.1863202
0000f0 d4 08 82 bd 7b 5c e3 bb bb 2e 62 bd c9 42 fc 3c
       -0.0634934 -0.0069385148 -0.055220347 0.030793564

fc2.weight f4 [1, 64]
000000 c3 b7 0c be 4d ea 1c be ed 86 5e 3e eb c2 2e be
       -0.13741975 -0.15323754 0.21731158 -0.17066543
000010 bb 03 c6 bd 99 33 21 be f7 4a de bd 6e 79 04 be
       -0.0966868 -0.15742339 -0.10854142 -0.12936947
000020 09 45 65 3e 63 17 62 3e e0 b8 03 3e 18 f0 34 be
       0.22389616 0.22079234 0.12863493 -0.17669713
000030 4f 3b 00 be 10 cb 2e be 48 d4 09 3e bd 98 2b be
       -0.12522624 -0.1706965 0.13459885 -0.16757484
000040 78 3c 1a be db 3b ca bd e7 55 1f be 4b b8 21 3e
       -0.1506213 -0.09874698 -0.15560113 0.15792958
000050 fa 95 3d be 6f 78 07 be b7 de 33 3e 73 f1 19 be
       -0.18514243 -0.13229536 0.17565428 -0.15033512
000060 d0 a8 d9 3d 8e 65 34 be 66 e9 22 be 30 bb 25 3e
       0.106279016 -0.17616865 -0.15909347 0.16184688
000070 ef 15 21 be b8 a1 75 3e 9e 9a 4f 3e 24 e6 36 be
       -0.15731023 0.23987472 0.20273826 -0.17861229
000080 40 9c 0e be d5 e1 17 be 07 f1 09 be 5e 27 52 be
       -0.13926792 -0.14832242 -0.13470851 -0.2052283
000090 67 9d 65 3e c2 fd 34 3e 37 5c 3d be 26 61 bb bd
       0.22423325 0.17674926 -0.18492208 -0.09149389
0000a0 cf 5f 34 3e d9 dc 14 3e 46 79 33 be e8 9d 53 3e
       0.17614673 0.14537372 -0.17526731 0.20665705
0000b0 dc 39 54 3e b4 10 f0 bd ce c0 d7 bd fa b7 2c be
       0.20725197 -0.11721936 -0.105348215 -0.16867056
0000c0 0d 5c b6 3d 24 83 ea bd 69 bf d2 bd 76 90 1f be
       0.08904276 -0.11450794 -0.10290415 -0.15582451
0000d0 34 cf 63 be 33 fa ec bd 0b 85 11 3e e7 14 09 3e
       -0.2224701 -0.11571159 0.14210908 0.1338688
0000e0 ae 4b 5c be 87 91 54 be 3f 91 d2 3d 7e b9 19 be
       -0.21513245 -0.2075864 0.1028161 -0.15012166
0000f0 1f 03 f8 bd 02 14 df bd c7 72 37 be 0d 87 fb 3d
       -0.1210997 -0.10892488 -0.17914878 0.12281618

exp_avg f4 [11, 128]
000000 58 99 30 36 4f b3 2a 36 48 06 ce 36 9e 5d 7b b6
       2.6315302e-06 2.5436345e-06 6.1400096e-06 -3.7456407e-06
000010 27 5a 26 35 88 81 05 36 4e e9 75 b5 6f 5e 80 b6
       6.197101e-07 1.9893941e-06 -9.1609115e-07 -3.825691e-06
000020 5b 8d 7b b6 ff fa 5d b5 2f 8d 41 36 49 fe 4b b5
       -3.7484194e-06 -8.2694163e-07 2.884142e-06 -7.5993427e-07
000030 9c 09 c5 34 47 a0 f7 35 3d 63 8c 36 1e 21 38 35
       3.67011e-07 1.8449581e-06 4.183878e-06 6.8593533e-07
000040 af 1b 31 b6 00 d5 2c b5 cd e4 72 b4 ca f2 d6 36
       -2.639117e-06 -6.438495e-07 -2.2621244e-07 6.4059614e-06
000050 c2 ad e0 b6 b0 a7 89 b6 01 ce 29 36 78 18 72 b5
       -6.6959483e-06 -4.1024396e-06 2.5302872e-06 -9.018763e-07
000060 e2 13 c8 b5 9f b5 7a b6 0c 0d 57 b6 2f a6 a9 36
       -1.4906948e-06 -3.735862e-06 -3.204509e-06 5.055939e-06
000070 4e c8 da 35 f4 d9 3a b5 50 74 7e b6 1a 2e 4b 36
       1.6300562e-06 -6.9607563e-07 -3.7916652e-06 3.0276192e-06
000080 5a 2d 1c b6 ab 2f ee b6 27 15 71 36 ea f2 91 b6
       -2.327221e-06 -7.098502e-06 3.592411e-06 -4.3496157e-06
000090 6f cd c2 b6 14 00 2a 36 bc fe 88 b6 5c 1c c9 b6
       -5.805566e-06 2.533202e-06 -4.082771e-06 -5.9935683e-06
0000a0 41 b4 46 36 bd 71 b2 35 dd 67 97 34 4d 4a 73 b5
       2.960922e-06 1.3295136e-06 2.8201512e-07 -9.0632676e-07
0000b0 ee ee 07 b6 bf d6 36 36 ca ee 76 b6 8e 3e ac 34
       -2.0255643e-06 2.7245112e-06 -3.679585e-06 3.208301e-07
0000c0 32 07 a5 35 92 b8 2d b6 fd 86 8b b6 9a c3 93 b6
       1.2295552e-06 -2.5886443e-06 -4.1582375e-06 -4.4037124e-06
0000d0 15 3f ba 33 a6 78 89 36 12 a4 9f b6 c0 33 72 b3
       8.6727745e-08 4.0969635e-06 -4.7576696e-06 -5.6392082e-08
0000e0 bf e7 a0 b5 1a 32 00 33 a0 a2 47 35 3f 06 b1 b5
       -1.1988376e-06 2.984789e-08 7.436993e-07 -1.3189346e-06
0000f0 b5 7d 2b b6 57 0d a1 36 99 49 8e 36 15 4c 0d b6
       -2.5554157e-06 4.799727e-06 4.2404977e-06 -2.1054923e-06
000100 e5 95 83 36 5b 00 bf b5 6a 85 1e 36 b0 91 96 35
       3.9215543e-06 -1.4230712e-06 2.3621492e-06 1.1218272e-06
000110 c2 60 5c 36 fc cc a4 b6 ca e1 82 b4 75 95 88 b6
       3.2838875e-06 -4.911444e-06 -2.437867e-07 -4.070515e-06
000120 55 86 c3 b5 c6 00 87 b6 06 cb 81 35 e4 ab d8 b6
       -1.4567728e-06 -4.0234036e-06 9.670337e-07 -6.4573123e-06
000130 bd 8d 69 b6 cd 7b 7a 36 c6 86 7e 36 a2 81 8a b6
       -3.4802208e-06 3.7324965e-06 3.7927398e-06 -4.1278117e-06
000140 03 45 c9 31 62 10 91 b6 d8 51 a7 b5 a0 d6 2f 34
       5.8577156e-09 -4.323244e-06 -1.2466289e-06 1.6376225e-07
000150 17 eb 0b b5 27 9b ec b5 c3 25 c5 35 1e 02 28 b6
       -5.2123636e-07 -1.7628525e-06 1.4688634e-06 -2.5035183e-06
000160 b2 7e 0e 35 8a a5 0b b5 aa f6 74 35 18 b0 db b6
       5.308349e-07 -5.2022426e-07 9.1256027e-07 -6.5472086e-06
000170 77 49 fe 36 7a 0d 3b b6 9c 03 1a b6 98 02 ce b6
       7.5783423e-06 -2.7873016e-06 -2.294989e-06 -6.1395804e-06
000180 3f 6a 2d 36 da a9 28 b6 32 ab 84 b6 9a 08 7b 36
       2.5840852e-06 -2.5132817e-06 -3.9538363e-06 3.7406921e-06
000190 c5 57 e2 35 6e e1 42 33 fc ba 01 b7 4f 5e 83 36
       1.6863856e-06 4.5374172e-08 -7.732535e-06 3.915083e-06
0001a0 7e c4 92 b6 c2 ea 8c 36 84 96 e2 b6 b5 b8 b0 b6
       -4.3740138e-06 4.1996545e-06 -6.752847e-06 -5.2667115e-06
0001b0 b4 7c 99 35 7a 1e 98 b6 16 fa 8d 36 ba 0e 2c 36
       1.1435682e-06 -4.533501e-06 4.2312413e-06 2.563857e-06
0001c0 11 25 99 b6 00 2b 0e 34 91 48 af b6 67 6a de b3
       -4.5640704e-06 1.3240424e-07 -5.2238543e-06 -1.0357035e-07
0001d0 38 11 68 36 df 44 ab 36 a5 95 36 36 41 c5 96 36
       3.4580717e-06 5.104215e-06 2.7207218e-06 4.4933117e-06
0001e0 52 0b 36 36 67 ab 78 36 6d 5c ce b6 96 ca 78 b3
       2.7126703e-06 3.705465e-06 -6.150038e-06 -5.792625e-08
0001f0 a8 07 dd 36 b7 30 38 36 b2 00 2b 36 73 58 62 34
       6.5872046e-06 2.7446492e-06 2.548139e-06 2.1080068e-07
000200 9f 92 21 b7 ce 5a 58 b7 c6 12 b0 b7 c9 b1 7b 37
       -9.630486e-06 -1.2895745e-05 -2.0989577e-05 1.500216e-05
000210 fd 32 12 36 51 24 01 b7 d2 9d e8 36 5a 4a 5d 37
       2.1785374e-06 -7.697455e-06 6.9325115e-06 1.3189938e-05
000220 ba 0e 83 37 ac 97 a6 36 b7 16 3f b7 4c d8 79 b5
       1.5623275e-05 4.9648424e-06 -1.1389776e-05 -9.307448e-07
000230 18 3c bd b5 62 00 a4 b6 90 89 59 b7 e6 53 58 b3
       -1.4099087e-06 -4.8876254e-06 -1.2966237e-05 -5.0367724e-08
000240 12 c1 ac 36 a7 73 68 36 6e 34 94 b5 1b 46 a9 b7
       5.148476e-06 3.4638012e-06 -1.1042118e-06 -2.0179015e-05
000250 c9 95 ee 37 c0 e8 9b 37 5c 6f cd b6 1f b2 8f 36
       2.844156e-05 1.8585823e-05 -6.12244e-06 4.282468e-06
000260 6d 6b e1 36 ff 91 5d 37 c4 74 e6 36 ca 0c c1 b7
       6.7180285e-06 1.3206619e-05 6.8681275e-06 -2.3013348e-05
000270 1b fa 55 b5 5e ba b5 36 f3 88 86 37 08 4e 46 b7
       -7.9712635e-07 5.4159163e-06 1.6037817e-05 -1.1819888e-05
000280 39 64 34 37 7e 98 ca 37 43 7b 8c b7 67 31 ac 37
       1.0752171e-05 2.4151286e-05 -1.6746699e-05 2.0527003e-05
000290 31 4d cd 37 6a ad 3b b7 f7 66 a7 37 36 36 b0 37
       2.447385e-05 -1.1186445e-05 1.9955898e-05 2.1006079e-05
0002a0 09 36 2b b7 95 3d d3 b6 2f 4b 9a 35 6f 59 86 35
       -1.0204975e-05 -6.295459e-06 1.1495775e-06 1.0009807e-06
0002b0 a5 6c 1e 37 6b 13 43 b7 e7 a2 8e 37 82 e6 be b5
       9.44283e-06 -1.1627427e-05 1.7003576e-05 -1.422319e-06
0002c0 0b 4d d3 b6 60 8f 22 37 ad 3d 7b 37 ef f0 70 37
       -6.297259e-06 9.689335e-06 1.4975126e-05 1.43612115e-05
0002d0 40 50 7c b4 e5 8d 96 b7 d7 21 9d 37 cc d7 93 34
       -2.3498524e-07 -1.7947468e-05 1.8731616e-05 2.7537897e-07
0002e0 5e 70 c2 36 80 36 1b 36 3f 71 9e b5 b0 f2 d0 36
       5.794732e-06 2.3128523e-06 -1.1804876e-06 6.2271356e-06
0002f0 99 34 50 37 50 3e b5 b7 d0 ae 8d b7 d2 c5 06 37
       1.24100125e-05 -2.1605898e-05 -1.6889913e-05 8.033081e-06
000300 6a fe 91 b7 5b b1 8a 36 75 be 19 b7 bc a1 49 b6
       -1.7403818e-05 4.1333674e-06 -9.163855e-06 -3.0045476e-06
000310 52 bb 60 b7 71 47 b5 37 64 42 7c b6 61 71 78 37
       -1.3395054e-05 2.1610149e-05 -3.758957e-06 1.480835e-05
000320 8e 46 e3 35 02 47 62 37 60 7e 90 34 bd e4 c7 37
       1.6933352e-06 1.34871825e-05 2.691404e-07 2.3829163e-05
000330 6f 0a 81 37 fe 4b 5a b7 0c 35 88 b7 cd 81 71 37
       1.5382857e-05 -1.3011506e-05 -1.6237165e-05 1.4394941e-05
000340 0c 32 e4 34 7e 13 96 37 c2 f9 39 36 56 bc 3b b6
       4.2504723e-07 1.789047e-05 2.7712526e-06 -2.7974797e-06
000350 4c dc da 35 49 ca f6 36 be 26 09 b7 34 d9 0a 37
       1.630638e-06 7.3549204e-06 -8.174857e-06 8.2760125e-06
000360 a3 e4 8e 36 e9 71 f5 b1 a6 d1 21 b7 2a 8e ca 37
       4.2585466e-06 -7.1433885e-09 -9.64516e-06 2.4146477e-05
000370 ab a0 e7 b7 73 d2 34 37 ae 90 f9 36 54 42 d7 37
       -2.7612163e-05 1.0777835e-05 7.437621e-06 2.5660884e-05
000380 00 d7 1a b7 ca 96 41 37 41 3c 74 37 9a 55 83 b7
       -9.229174e-06 1.1538805e-05 1.4557562e-05 -1.5656278e-05
000390 21 4a cf b6 06 77 28 36 6a 19 f8 37 49 f6 54 b7
       -6.1777105e-06 2.5103232e-06 2.9575738e-05 -1.2693527e-05
0003a0 81 da a1 37 0e 8f 72 b7 17 28 ec 37 9c b4 9b 37
       1.9294444e-05 -1.4457632e-05 2.815206e-05 1.8561543e-05
0003b0 2a bd 3b b4 f1 94 b5 37 34 0f 73 b7 52 fc 47 b7
       -1.748455e-07 2.1646238e-05 -1.4487468e-05 -1.1920072e-05
0003c0 b6 c8 92 37 06 78 96 b6 d4 72 99 37 0e 04 4f b5
       1.749802e-05 -4.484321e-06 1.8292492e-05 -7.711941e-07
0003d0 e5 83 6a b7 52 fa a5 b7 7c 71 03 b7 48 1d a9 b7
       -1.3978196e-05 -1.9786097e-05 -7.834631e-06 -2.0160005e-05
0003e0 9f ea 5f b7 aa dd 88 b7 5d a7 c4 37 2f ae 7e b6
       -1.3346463e-05 -1.6315684e-05 2.3442955e-05 -3.7950338e-06
0003f0 4b 57 da b7 a2 3d 6e b7 76 d1 4f b7 38 1b 99 35
       -2.6028274e-05 -1.42002555e-05 -1.238693e-05 1.140731e-06

exp_avg_sq f4 [11, 128]
000000 d5 ab 37 33 08 58 08 33 e1 6d 32 34 28 eb 90 33
       4.2764288e-08 3.174503e-08 1.6617516e-07 6.748297e-08
000010 28 19 93 2f 41 80 9f 32 b4 9f 19 32 8d 3f a9 33
       2.675702e-10 1.856836e-08 8.942084e-09 7.8812356e-08
000020 57 19 92 33 72 06 37 31 96 4e 1f 33 b6 52 47 2f
       6.803264e-08 2.6633669e-09 3.7091546e-08 1.812833e-10
000030 ad 29 82 2e 3e 06 1f 32 65 f5 a9 33 40 f8 2b 30
       5.919119e-11 9.256437e-09 7.914313e-08 6.256222e-10
000040 6e 32 06 33 29 08 2d 31 e1 c8 e2 2e cc 36 38 34
       3.1245172e-08 2.5179452e-09 1.03129734e-10 1.715627e-07
000050 78 05 6b 34 7f 3b a0 33 98 10 11 33 89 94 8f 31
       2.188807e-07 7.461403e-08 3.3775535e-08 4.1787342e-09
000060 65 7b f2 31 2c 63 7a 33 14 0b 18 33 51 37 00 34
       7.0571553e-09 5.8297857e-08 3.5400333e-08 1.1941053e-07
000070 8a 56 0e 32 e0 9a 36 31 7a 17 82 33 56 eb 42 33
       8.2851646e-09 2.6572522e-09 6.057867e-08 4.538318e-08
000080 ea d6 e1 32 a2 27 7e 34 e6 81 64 33 8f 49 c8 33
       2.6291179e-08 2.3670012e-07 5.320353e-08 9.326606e-08
000090 5b 27 28 34 25 ab eb 32 45 bf ab 33 5c ba 18 34
       1.5660537e-07 2.7435428e-08 7.9976e-08 1.42239e-07
0000a0 d4 02 fc 32 84 c9 fb 31 04 33 65 2d ed 03 0f 31
       2.9337947e-08 7.327971e-09 1.3028471e-11 2.081147e-09
0000b0 13 46 c4 32 dd e9 0a 33 5c 53 87 33 2b a2 49 2f
       2.284927e-08 3.2343326e-08 6.3015904e-08 1.8338457e-10
0000c0 4e 35 f2 31 e8 85 ff 32 96 6b 9a 33 c9 96 9d 33
       7.049187e-09 2.97468e-08 7.1907536e-08 7.33831e-08
0000d0 99 fd 03 2f e3 35 a8 33 f7 b6 e5 33 e3 d5 71 2f
       1.2004477e-10 7.8329116e-08 1.06969246e-07 2.199481e-10
0000e0 78 3d e7 31 8f 17 dc 2f 44 ac ce 31 be 87 d8 31
       6.729973e-09 4.0034506e-10 6.0149734e-09 6.3018595e-09
0000f0 c2 00 1b 33 0e d1 f4 33 2e f5 cf 33 e5 da d3 32
       3.608944e-08 1.1400162e-07 9.6837866e-08 2.4663175e-08
000100 6b 75 94 33 21 f9 9f 31 c9 ea cc 32 a1 ed a7 31
       6.913145e-08 4.6558317e-09 2.3855494e-08 4.887355e-09
000110 5a be 3b 33 3c 97 f7 33 2c 60 42 2f d5 fb a1 33
       4.3712454e-08 1.1529343e-07 1.7678364e-10 7.542955e-08
000120 f7 c3 a4 31 51 78 88 33 e3 fe ee 30 7f 8d 48 34
       4.795307e-09 6.354879e-08 1.7389222e-09 1.8677927e-07
000130 5d ee 85 33 cd a7 80 33 f9 02 a2 33 c8 2e 8d 33
       6.236653e-08 5.990987e-08 7.5442536e-08 6.5743336e-08
000140 a9 0f 0a 2f 41 ae d5 33 9e 8f 84 31 3c 68 13 2f
       1.255659e-10 9.950282e-08 3.858033e-09 1.3406604e-10
000150 f4 39 11 31 de d6 5f 32 db 4b 61 32 0d 51 a4 32
       2.113322e-09 1.30291635e-08 1.3113971e-08 1.912897e-08
000160 7a 03 e2 2e 30 de 68 30 d9 f6 1c 32 f9 35 4d 34
       1.0277908e-10 8.4716856e-10 9.136522e-09 1.9111748e-07
000170 e2 97 89 34 ab 7a 16 33 8a 9a e2 32 85 fa 3f 34
       2.5628748e-07 3.5036162e-08 2.6380139e-08 1.78794e-07
000180 a3 68 06 33 ca 4e 01 33 5d 38 78 33 4a 95 8a 33
       3.1294473e-08 3.010681e-08 5.779326e-08 6.453281e-08
000190 63 8f 41 32 33 db 1b 2e 0b 7e 91 34 f7 bf 5b 33
       1.1266681e-08 3.5437608e-11 2.7100063e-07 5.1164502e-08
0001a0 d1 c4 c8 33 3f 38 a5 33 8b e5 58 34 a8 77 ea 33
       9.3490264e-08 7.693642e-08 2.0200075e-07 1.09182395e-07
0001b0 e1 75 64 30 b9 b0 e4 33 bb 09 95 33 24 e1 f5 32
       8.3113433e-10 1.0649223e-07 6.940123e-08 2.8624136e-08
0001c0 14 5a be 33 0c a9 60 30 bc 3e ef 33 95 d2 de 2e
       8.8639496e-08 8.1730955e-10 1.1140716e-07 1.0132798e-10
0001d0 2f 93 62 33 85 09 eb 33 a3 c6 ec 32 3c 9c c9 33
       5.2753588e-08 1.0944772e-07 2.7564345e-08 9.388211e-08
0001e0 34 f1 2f 33 71 a9 82 33 c2 0f 2b 34 d9 50 e2 2f
       4.0964736e-08 6.084418e-08 1.5931349e-07 4.1166606e-10
0001f0 3d 52 57 34 4e 78 2a 33 5f 0f 16 33 21 60 3d 2f
       2.0053353e-07 3.9690626e-08 3.4938576e-08 1.7223602e-10
000200 04 a5 fc 33 7f 3f 51 34 b9 20 01 35 5c 3b 93 34
       1.17646806e-07 1.9487742e-07 4.810386e-07 2.7424073e-07
000210 44 66 de 31 d3 1d 9a 33 d3 97 70 33 f4 1c 7e 34
       6.4726766e-09 7.176609e-08 5.6017438e-08 2.3666126e-07
000220 04 da 9e 34 5d 90 13 33 45 3e 29 34 fe 50 6b 31
       2.958842e-07 3.4357402e-08 1.5762005e-07 3.424304e-09
000230 9d 69 1a 31 d0 87 a3 32 78 ae 3c 34 80 1c f1 2f
       2.2469984e-09 1.9037458e-08 1.7572336e-07 4.3857895e-10
000240 78 15 0b 33 3f b8 69 32 45 7b 7c 30 f5 eb 07 35
       3.2382985e-08 1.3604278e-08 9.185224e-10 5.063478e-07
000250 c3 33 76 35 0d 6c d4 34 82 b6 92 33 b8 43 c2 32
       9.1717465e-07 3.9566694e-07 6.831853e-08 2.2615367e-08
000260 dc 97 49 33 26 28 5a 34 ee 77 87 33 43 11 1e 35
       4.6937075e-08 2.0317438e-07 6.3082425e-08 5.8884706e-07
000270 b6 5d cb 31 ad 0e e4 32 06 e4 94 34 c0 c9 45 34
       5.9187313e-09 2.6549367e-08 2.7733057e-07 1.8420451e-07
000280 3d 86 f9 33 bc 21 47 35 84 f7 9c 34 95 26 05 35
       1.1619384e-07 7.4182367e-07 2.9237356e-07 4.9602505e-07
000290 44 75 3e 35 05 95 1d 34 dc a1 f6 34 a5 0d 08 35
       7.095116e-07 1.4675977e-07 4.593884e-07 5.0683803e-07
0002a0 d0 d7 05 34 80 e8 4f 33 6a 8d 7d 30 d0 35 48 30
       1.2465102e-07 4.84074e-08 9.2241825e-10 7.283605e-10
0002b0 a2 97 c0 33 cb f6 15 34 2e 44 b2 34 99 4f 66 30
       8.9682786e-08 1.3966489e-07 3.320469e-07 8.378663e-10
0002c0 f6 ec 3e 33 01 45 f8 33 c4 ea 72 34 d8 d8 81 34
       4.4453337e-08 1.1560952e-07 2.2623414e-07 2.4185897e-07
0002d0 34 22 06 30 d5 2a bd 34 69 46 e0 34 77 db 88 30
       4.879752e-10 3.5235158e-07 4.1774481e-07 9.957678e-10
0002e0 f5 25 12 33 3c dc 75 32 95 e5 ab 31 1a 10 48 33
       3.4027796e-08 1.4310952e-08 5.0028555e-09 4.6580773e-08
0002f0 dd 8d 4d 34 fe 1a 14 35 60 2a bc 34 b5 fc bf 33
       1.9143722e-07 5.5173575e-07 3.504856e-07 8.940098e-08
000300 e2 c3 c5 34 73 11 bf 32 01 0b b8 33 f9 98 bf 31
       3.6836633e-07 2.2243261e-08 8.570169e-08 5.5762226e-09
000310 26 8d 61 34 13 6b 12 35 13 7a 1b 32 a7 dc 89 34
       2.1006107e-07 5.454505e-07 9.049944e-09 2.5678784e-07
000320 ce 33 b5 30 0f 61 66 34 6f e8 36 2e 92 3e 35 35
       1.3184207e-09 2.1455729e-07 4.158845e-11 6.7518806e-07
000330 cf ac 97 34 58 4e 5a 34 5a d4 ad 34 c4 d4 80 34
       2.8251677e-07 2.0331333e-07 3.2378267e-07 2.3996665e-07
000340 a6 ec a4 2f 24 1c ce 34 fe ab ff 31 23 0d f4 31
       2.9999575e-10 3.8390965e-07 7.44103e-09 7.102828e-09
000350 5e a2 0b 31 94 a7 8e 33 c0 a8 ba 33 a0 66 a4 33
       2.0319457e-09 6.6428726e-08 8.6919954e-08 7.6555125e-08
000360 6d 9a b1 32 c5 46 c2 2f 4e e8 c1 33 50 22 37 35
       2.0675737e-08 3.533868e-10 9.029519e-08 6.8222744e-07
000370 71 14 78 35 30 5b 16 34 c6 4d a9 33 16 03 51 35
       9.2416946e-07 1.4003012e-07 7.883823e-08 7.786306e-07
000380 c5 c9 ea 33 ef 96 2a 34 d7 9c 80 34 76 6b 9d 34
       1.0933176e-07 1.5887393e-07 2.3955974e-07 2.9321717e-07
000390 fc 22 45 33 89 20 2e 32 d3 44 8b 35 54 0a 47 34
       4.5899455e-08 1.0135531e-08 1.0376338e-06 1.8537077e-07
0003a0 06 47 db 34 ec a9 8c 34 2a cc 77 35 a1 2b d5 34
       4.0843605e-07 2.6200667e-07 9.231177e-07 3.9706086e-07
0003b0 e3 9a 61 2f 08 6f 16 35 91 80 8e 34 dd 67 31 34
       2.0518658e-10 5.6040926e-07 2.6543105e-07 1.6522195e-07
0003c0 91 a1 b9 34 1f d5 a9 32 15 15 d9 34 5d e8 79 30
       3.457649e-07 1.9771106e-08 4.043474e-07 9.091588e-10
0003d0 4c 38 6f 34 33 7d d3 34 48 1c aa 33 9c 2f 01 35
       2.227909e-07 3.9392907e-07 7.921386e-08 4.8125526e-07
0003e0 98 54 65 34 54 f9 9e 34 8d 8c 2a 35 65 46 51 32
       2.1358062e-07 2.9611203e-07 6.3534463e-07 1.2181407e-08
0003f0 24 b5 58 35 61 bf 7e 34 fa 73 51 34 c1 6e 09 30
       8.0729865e-07 2.3725217e-07 1.9506834e-07 4.99977e-10

exp_avg f4 [64, 128]
000000 96 21 e5 37 b1 73 6c 37 f7 63 89 36 e4 c5 97 36
       2.7314567e-05 1.4093633e-05 4.0945556e-06 4.523188e-06
000010 e2 4b 07 b7 db ce b6 b6 75 55 01 b7 6c 73 61 37
       -8.064295e-06 -5.448104e-06 -7.708896e-06 1.3437919e-05
000020 f7 6c e3 b6 94 11 2b b6 e3 84 e3 35 07 c6 38 37
       -6.7778124e-06 -2.5491217e-06 1.6951493e-06 1.10133615e-05
000030 3e 68 5a b7 5b b2 07 37 68 5c 4e 36 e6 70 b8 b6
       -1.3018083e-05 8.088154e-06 3.075018e-06 -5.4967704e-06
000040 12 22 69 36 d9 fc b1 36 d9 88 74 37 c9 b2 68 b6
       3.4739537e-06 5.3044464e-06 1.4575396e-05 -3.467476e-06
000050 d8 57 b3 b7 c6 f1 8c 36 9b bd db b5 a5 2a 87 37
       -2.1379368e-05 4.2004713e-06 -1.6371954e-06 1.6113112e-05
000060 91 4d 42 b6 ee 5f 3a b6 76 86 5c 37 46 6a 83 37
       -2.8953402e-06 -2.7771998e-06 1.31443285e-05 1.5665904e-05
000070 a9 68 c7 35 73 48 b7 b6 b0 8a b4 36 d1 d1 86 b5
       1.4857116e-06 -5.462259e-06 5.3805634e-06 -1.0044843e-06
000080 0a 43 35 b7 fc 8d 1b 36 2f 88 6a 37 c3 a9 89 b6
       -1.0804049e-05 2.3179446e-06 1.3979195e-05 -4.102681e-06
000090 7b fa 92 b6 56 87 78 b7 0f 33 6a b7 92 d4 7f 36
       -4.380299e-06 -1.4813462e-05 -1.3959375e-05 3.8121693e-06
0000a0 a1 ec 05 b7 93 10 09 37 ac b4 2a b7 f7 d9 0b 37
       -7.982512e-06 8.169695e-06 -1.0174856e-05 8.3357945e-06
0000b0 5e e7 ee b6 28 4f 07 37 f0 21 03 36 8d 8a 6f 37
       -7.1198874e-06 8.065057e-06 1.9540275e-06 1.4277769e-05
0000c0 5c 69 1b b7 b7 e7 a6 36 26 27 37 b7 3f f8 a2 b6
       -9.263251e-06 4.9741607e-06 -1.0916765e-05 -4.856876e-06
0000d0 8a 05 48 37 cd 40 25 b6 f9 80 bd 36 ce dd b1 36
       1.1922219e-05 -2.4624635e-06 5.6476533e-06 5.3008325e-06
0000e0 85 ba ba b7 fc 3b c5 b6 b0 39 d0 35 1c b1 0c 35
       -2.2259783e-05 -5.8780406e-06 1.5513997e-06 5.241179e-07
0000f0 37 92 07 b6 6f 88 8b 37 c2 7a 99 b4 db 28 a7 37
       -2.0201676e-06 1.6633623e-05 -2.858779e-07 1.9926976e-05
000100 6b 34 ae 37 4b 87 27 b7 a4 13 e9 b6 c9 e3 77 b6
       2.0766825e-05 -9.985476e-06 -6.9462276e-06 -3.6938457e-06
000110 fd ec 12 37 07 13 4c b5 8f 83 36 37 e1 7d 25 37
       8.757456e-06 -7.602361e-07 1.0878676e-05 9.864075e-06
000120 09 13 f9 36 8a 11 e3 36 51 c4 46 36 2f 45 1c b6
       7.4229943e-06 6.767169e-06 2.961857e-06 -2.3286082e-06
000130 8b 7f 00 36 d7 8f 91 b7 c7 cd 8e b6 5c e9 81 35
       1.9147726e-06 -1.7352328e-05 -4.2558854e-06 9.679165e-07
000140 62 65 cf b6 bc 87 56 b7 a6 36 eb b6 e4 42 a4 b6
       -6.1808832e-06 -1.2786997e-05 -7.0099077e-06 -4.895368e-06
000150 43 12 94 b7 92 08 3d 37 b0 99 ea 36 f0 67 88 b5
       -1.7651479e-05 1.1267273e-05 6.991635e-06 -1.0163039e-06
000160 64 2e 53 b7 cd c6 9c b6 88 f5 5f 37 8b b4 d7 b6
       -1.2587381e-05 -4.6723057e-06 1.3349003e-05 -6.4285173e-06
000170 d9 de 4e b6 26 94 07 37 5f 97 db 37 42 aa 7a 36
       -3.0826106e-06 8.0811205e-06 2.6177322e-05 3.7352006e-06
000180 f1 a8 a8 37 be a3 90 b3 25 b4 05 37 d9 f5 d9 b6
       2.010583e-05 -6.735307e-08 7.969361e-06 -6.4957244e-06
000190 6d fa 38 b7 af 80 8f b6 5c 46 32 37 ec b8 5b 36
       -1.1025561e-05 -4.276713e-06 1.0626009e-05 3.2741182e-06
0001a0 16 d9 0a b7 d4 ad 0e 37 6c 08 8a b6 0f 71 11 b7
       -8.275985e-06 8.504332e-06 -4.113701e-06 -8.668997e-06
0001b0 c7 99 a8 b3 46 ed 36 b7 4a 0d 98 b7 44 78 41 b7
       -7.8510816e-08 -1.090329e-05 -1.8126e-05 -1.1531698e-05
0001c0 5c de 06 b7 06 60 c5 37 cf 94 2d 37 33 d0 c1 36
       -8.0387945e-06 2.3528944e-05 1.0346251e-05 5.776086e-06
0001d0 84 9b b2 b6 ff 7c 36 37 84 89 21 b4 ef 24 a4 b6
       -5.322918e-06 1.0877148e-05 -1.5044321e-07 -4.8918805e-06
0001e0 3c ac ae b5 16 1f cd 36 25 80 1f b7 f2 1a 88 36
       -1.3014137e-06 6.113095e-06 -9.5069745e-06 4.0562527e-06
0001f0 6f 0d b9 b6 e5 63 50 37 ab bb cb 36 12 a2 2f b7
       -5.5149935e-06 1.2421025e-05 6.071719e-06 -1.0468548e-05
000200 8f c5 99 38 de 26 26 38 2a 10 55 37 5b fd 49 37
       7.332407e-05 3.9613682e-05 1.2699553e-05 1.20395225e-05
000210 d3 03 ca b7 e0 88 84 b7 bc 77 af b7 75 f5 29 38
       -2.4082057e-05 -1.5799364e-05 -2.0917381e-05 4.052134e-05
000220 4e 40 a4 b7 43 8d 07 b7 36 cc 1c 36 56 fc f5 37
       -1.9580268e-05 -8.079517e-06 2.3364678e-06 2.9323779e-05
000230 8f a4 13 b8 04 8f b5 37 1c 30 fd 36 c6 e1 82 b7
       -3.520079e-05 2.1643478e-05 7.5455882e-06 -1.5602342e-05
000240 06 15 1b 37 9e bd 7f 37 a8 9c 2f 38 9d e4 21 b7
       9.243615e-06 1.5243333e-05 4.186915e-05 -9.649576e-06
000250 fa 6b 7a b8 a6 28 34 37 aa a8 f3 b6 ee cb 2b 38
       -5.9705206e-05 1.07383e-05 -7.2615994e-06 4.09595e-05
000260 a8 1e 2e b7 24 fd 16 b7 20 b5 19 38 b0 2c 3a 38
       -1.0378346e-05 -8.999636e-06 3.664673e-05 4.4387474e-05
000270 35 8b 36 36 d6 da 7f b7 67 5e 72 37 dc f8 16 b6
       2.7201143e-06 -1.5250136e-05 1.4446304e-05 -2.2496597e-06
000280 22 c7 05 b8 be be ee 36 d9 93 31 38 e9 82 68 b7
       -3.1895128e-05 7.115158e-06 4.2337782e-05 -1.38587575e-05
000290 1f 44 58 b7 ec fc 22 b8 44 fd 2a b8 69 54 01 37
       -1.2890464e-05 -3.885936e-05 -4.076703e-05 7.708652e-06
0002a0 cf 14 aa b7 aa 91 aa 37 ec 90 e1 b7 06 16 bc 37
       -2.0275269e-05 2.033341e-05 -2.6889575e-05 2.2421602e-05
0002b0 0a e2 ba b7 22 1e c5 37 9f d9 7b 36 4b e3 2c 38
       -2.2278185e-05 2.3498262e-05 3.7528587e-06 4.121968e-05
0002c0 d4 a2 c4 b7 c2 8a 7c 37 66 2e fa b7 ad 82 6a b7
       -2.3440844e-05 1.5052678e-05 -2.9823928e-05 -1.3977912e-05
0002d0 1e fc 0e 38 ee 7e b9 b6 5b 27 73 37 15 52 69 37
       3.409024e-05 -5.528206e-06 1.4493092e-05 1.3906993e-05
0002e0 db 46 80 b8 7d 4e 88 b7 65 23 fb 35 1d 09 a0 b5
       -6.1167135e-05 -1.6249012e-05 1.8711258e-06 -1.1923581e-06
0002f0 5b 58 8c b6 c2 8c 4e 38 5d 9c 93 b5 0f 5e 70 38
       -4.182611e-06 4.924532e-05 -1.0997861e-06 5.7308058e-05
000300 83 87 74 38 2a e7 ec b7 f2 b6 a0 b7 7c 4a fa b6
       5.830034e-05 -2.8241036e-05 -1.9158677e-05 -7.4592517e-06
000310 d9 cf cf 37 85 4a 11 b7 e7 0a 1a 38 d4 99 dd 37
       2.477311e-05 -8.660024e-06 3.6726615e-05 2.6416885e-05
000320 0b 3d 9b 37 9d ef 9f 37 92 b9 0c 37 c6 10 cf b6
       1.8505865e-05 1.9065856e-05 8.387857e-06 -6.1710334e-06
000330 cf 99 90 36 f9 8e 42 b8 1c 98 2c b7 c0 f6 26 36
       4.30944e-06 -4.6386358e-05 -1.0287415e-05 2.4879555e-06
000340 f1 7d 98 b7 f2 6f 12 b8 0a dc 83 b7 26 e5 1f b7
       -1.8178458e-05 -3.491337e-05 -1.571888e-05 -9.530491e-06
000350 12 65 45 b8 3f db fd 37 73 8a a8 37 8a 37 8f b6
       -4.706259e-05 3.0262045e-05 2.0091631e-05 -4.2681977e-06
000360 36 d1 09 b8 5f ac 6d b7 08 4f 17 38 4d e6 89 b7
       -3.285819e-05 -1.4166434e-05 3.607481e-05 -1.6438915e-05
000370 8f 52 07 b7 30 6d be 37 b5 61 9a 38 cd 74 00 37
       -8.065849e-06 2.270061e-05 7.3614916e-05 7.656589e-06
000380 9f 8b 5f 38 c8 f3 b0 34 ce 78 aa 37 4e 60 9b b7
       5.3297375e-05 3.295993e-07 2.0321833e-05 -1.8522285e-05
000390 94 b4 f7 b7 3b b4 62 b7 44 7d f1 37 8d 97 23 37
       -2.9528783e-05 -1.3512613e-05 2.878777e-05 9.750843e-06
0003a0 7d b6 bf b7 3f 5d b9 37 ce 4d 6a b7 e8 ee c1 b7
       -2.2853952e-05 2.209714e-05 -1.3965602e-05 -2.3118642e-05
0003b0 1c 92 00 36 3b bf 07 b8 87 e4 51 b8 b9 78 06 b8
       1.9158533e-06 -3.2364605e-05 -5.0042316e-05 -3.206052e-05
0003c0 32 05 d4 b7 56 00 89 38 0d 30 ef 37 d4 7a 91 37
       -2.5274789e-05 6.532732e-05 2.8513396e-05 1.7342543e-05
0003d0 eb 9b 61 b7 46 3b 06 38 b6 7d 2a b5 4e 75 68 b7
       -1.3447348e-05 3.2003292e-05 -6.351287e-07 -1.385559e-05
0003e0 14 aa a4 b5 c7 65 8b 37 33 dc de b7 33 b3 34 37
       -1.2268451e-06 1.6617485e-05 -2.6567e-05 1.0770559e-05
0003f0 b8 75 80 b7 a3 05 1d 38 09 1a a1 37 c3 ea f7 b7
       -1.5313606e-05 3.7436967e-05 1.920482e-05 -2.9554014e-05

exp_avg_sq f4 [64, 128]
000000 a7 4a 7d 34 e6 a3 8d 31 0d f1 db 32 1a 1c 05 35
       2.358962e-07 4.122273e-09 2.5604573e-08 4.9587254e-07
000010 37 6a 80 30 ca 4d 98 34 79 13 1d 33 cc 55 c3 33
       9.343414e-10 2.8368805e-07 3.657212e-08 9.0960015e-08
000020 14 e1 64 34 21 d2 e0 32 ab 56 8f 33 0e c6 01 33
       2.1316038e-07 2.6172588e-08 6.674721e-08 3.0215283e-08
000030 39 fe 75 34 70 bd fd 30 64 33 9e 31 d3 fd 57 31
       2.2909889e-07 1.8462014e-09 4.6042476e-09 3.14309e-09
000040 83 5a d9 31 98 45 34 31 f9 d1 9b 33 3f 18 5b 33
       6.325821e-09 2.6233007e-09 7.255944e-08 5.1011963e-08
000050 ff aa 19 32 06 d8 a2 34 fd 72 62 30 0c d2 77 34
       8.944652e-09 3.033203e-07 8.238173e-10 2.3080082e-07
000060 59 bf 08 31 4a 45 a9 32 03 9a db 32 80 ff 4a 33
       1.9899373e-09 1.9705698e-08 2.5564992e-08 4.7264166e-08
000070 b6 86 d2 31 3b fb a1 32 15 27 6f 32 42 3d 6f 33
       6.1271193e-09 1.8857113e-08 1.3920517e-08 5.5702237e-08
000080 3e b1 bb 32 a0 cb 12 33 16 ab a7 32 45 52 19 34
       2.1850266e-08 3.417847e-08 1.951916e-08 1.4279165e-07
000090 d4 f5 bb 33 20 bb 73 34 68 92 3f 34 24 d6 bd 34
       8.752582e-08 2.2699214e-07 1.7841523e-07 3.53598e-07
0000a0 8f ee 34 34 e7 bd 24 33 f6 d6 dd 32 9a 38 05 31
       1.6850593e-07 3.835694e-08 2.5825539e-08 1.9386222e-09
0000b0 5a 1b a1 33 03 73 0b 33 f9 0a 29 34 fb ad d9 33
       7.502122e-08 3.2468062e-08 1.5743343e-07 1.0136497e-07
0000c0 a6 db a6 32 e6 66 57 34 66 d5 8f 32 00 06 0c 32
       1.9424828e-08 2.006087e-07 1.6744433e-08 8.150437e-09
0000d0 a4 10 53 31 57 5b d9 30 c9 a7 3f 33 8f f0 3f 32
       3.0714e-09 1.5814788e-09 4.4623253e-08 1.117236e-08
0000e0 09 f4 8b 32 4f 93 b6 31 ce 72 99 31 35 e4 09 33
       1.6292704e-08 5.313644e-09 4.465938e-09 3.210535e-08
0000f0 5e ff 8c 33 d9 5a cf 34 99 95 fe 31 62 a6 3a 34
       6.565709e-08 3.8622855e-07 7.40938e-09 1.738313e-07
000100 ba 6f 47 34 43 79 1a 33 6f 0d c9 32 02 e5 ce 31
       1.8573965e-07 3.5966206e-08 2.3405589e-08 6.0214242e-09
000110 b2 35 26 34 47 25 93 34 6c 2a 28 33 ee ec f7 32
       1.5479489e-07 2.7408007e-07 3.915413e-08 2.8862328e-08
000120 eb 35 de 30 54 57 24 33 0c 74 1f 30 a9 dd 19 34
       1.616795e-09 3.826365e-08 5.8008776e-10 1.4329875e-07
000130 87 13 36 33 ee 50 f0 33 ea 3b b1 34 c5 7c 82 31
       4.2392937e-08 1.1190592e-07 3.3012412e-07 3.7976826e-09
000140 e0 84 7f 33 01 90 2a 33 ef b2 16 31 23 85 65 30
       5.9492663e-08 3.971218e-08 2.1929585e-09 8.3498913e-10
000150 8a 29 58 33 24 90 c7 32 01 0d e2 32 49 38 d4 32
       5.03292e-08 2.3232197e-08 2.6315776e-08 2.4705644e-08
000160 e4 88 a4 32 10 c4 9c 32 9a 87 a9 32 1f 84 02 32
       1.9154363e-08 1.8249949e-08 1.9735854e-08 7.597037e-09
000170 f5 11 b6 33 32 5e 03 33 6e 63 f9 33 78 7c 64 34
       8.478302e-08 3.0586484e-08 1.1613052e-07 2.1279436e-07
000180 08 7d 2e 34 08 37 56 34 75 68 99 34 3e 55 80 34
       1.6250499e-07 1.9950323e-07 2.8574473e-07 2.390388e-07
000190 87 03 ea 30 06 d0 31 31 be 6f 27 34 47 f6 95 33
       1.7026743e-09 2.5875138e-09 1.5593739e-07 6.983151e-08
0001a0 82 7d 7b 31 82 c8 a2 33 13 e5 b5 32 40 78 79 34
       3.659665e-09 7.580185e-08 2.1175344e-08 2.3233679e-07
0001b0 09 48 e1 30 1b 8d bb 33 28 9e b3 33 50 f7 30 34
       1.6391378e-09 8.733533e-08 8.3641055e-08 1.6481249e-07
0001c0 eb e6 f3 33 88 bd e2 32 39 fe 6d 33 b9 97 91 33
       1.1357573e-07 2.6396052e-08 5.5412077e-08 6.779687e-08
0001d0 2b 4c 8d 34 5c 5d 99 31 39 0e f7 32 ae cb ef 33
       2.6318716e-07 4.4635e-09 2.8761052e-08 1.1166354e-07
0001e0 df 0e ed 30 c9 b9 d4 33 bb 6b 69 33 78 11 03 32
       1.7248246e-09 9.9058134e-08 5.434752e-08 7.6291755e-09
0001f0 98 68 89 34 00 46 38 34 b1 3d 09 33 18 12 4c 32
       2.559434e-07 1.7161801e-07 3.1953906e-08 1.1878477e-08
000200 02 6c 02 36 17 c6 f5 32 18 89 ba 33 f4 2c 63 36
       1.9434378e-06 2.8611835e-08 8.686237e-08 3.3851802e-06
000210 71 3e f8 31 9c 92 11 36 03 01 80 34 94 b8 ef 34
       7.2248487e-09 2.1692022e-06 2.3842594e-07 4.4651517e-07
000220 8d 12 a6 35 ee d5 09 34 1f f4 e9 34 42 6a 75 34
       1.2373363e-06 1.2836946e-07 4.3577253e-07 2.285606e-07
000230 3e 86 dc 35 39 ac 89 32 ee 1f 02 33 fb 75 a0 32
       1.6430347e-06 1.6027217e-08 3.0297024e-08 1.8680103e-08
000240 9b a5 80 33 07 33 a6 32 0a 5b f9 34 04 4e b8 34
       5.990588e-08 1.9348148e-08 4.6446104e-07 3.4329435e-07
000250 98 85 8f 33 13 92 20 36 b2 03 fe 31 5c c4 e3 35
       6.683257e-08 2.3926884e-06 7.392793e-09 1.6969966e-06
000260 49 47 32 32 3a 65 21 34 3c 28 3b 34 54 8c b3 34
       1.0377172e-08 1.503112e-07 1.743037e-07 3.344345e-07
000270 5f 63 08 33 b0 be f8 33 ef a3 c0 33 46 38 a1 34
       3.1755345e-08 1.1583086e-07 8.970516e-08 3.002953e-07
000280 a6 32 eb 33 37 72 10 34 40 22 3f 34 00 66 9d 35
       1.0952253e-07 1.3452596e-07 1.7800721e-07 1.1727097e-06
000290 1b 9e 04 35 01 05 c6 35 d3 6d aa 35 c9 db 43 36
       4.9403906e-07 1.4753606e-06 1.269795e-06 2.9185196e-06
0002a0 9e a1 a6 35 c0 c1 16 34 8c 2f 17 34 de b2 f5 32
       1.2415001e-06 1.4040324e-07 1.4080268e-07 2.8603093e-08
0002b0 2c 60 b0 34 62 dd 80 34 d7 4b 87 35 db 26 19 35
       3.285253e-07 2.4002935e-07 1.0080356e-06 5.7053484e-07
0002c0 11 9a 81 34 d6 3a cc 35 37 61 e4 33 0f 60 bc 32
       2.414022e-07 1.5216308e-06 1.06347606e-07 2.1929763e-08
0002d0 e4 9b af 32 ca 6c 26 33 df 8a 01 35 87 78 80 33
       2.0443572e-08 3.874883e-08 4.825833e-07 5.982388e-08
0002e0 f9 b3 f0 33 61 37 17 33 99 18 79 33 28 9a c7 34
       1.1208608e-07 3.5207794e-08 5.79972e-08 3.7178802e-07
0002f0 fe e3 c4 34 35 53 59 36 0a 4b 3f 33 86 9f 94 35
       3.667373e-07 3.2383953e-06 4.45389e-08 1.1073287e-06
000300 26 fd ba 35 d6 15 94 34 e7 24 5b 34 5b 1c 8d 32
       1.3931756e-06 2.7583036e-07 2.040939e-07 1.6427455e-08
000310 13 b6 82 35 16 bf 24 36 f9 e7 bd 33 06 e7 54 34
       9.738745e-07 2.454913e-06 8.843194e-08 1.9828084e-07
000320 42 4b 45 32 f3 b0 ac 34 e2 db 81 31 a7 bd 56 35
       1.1484021e-08 3.2166244e-07 3.779392e-09 7.9997193e-07
000330 51 13 b3 34 2e 86 9b 35 59 55 24 36 74 00 37 33
       3.3355403e-07 1.1587451e-06 2.4487583e-06 4.260842e-08
000340 30 eb ef 34 3b 17 86 34 d5 8a a7 32 90 86 9d 32
       4.468834e-07 2.4976347e-07 1.9504492e-08 1.8338397e-08
000350 be 36 f0 34 de 6a 59 34 40 7d 58 34 2a e6 b6 34
       4.4743314e-07 2.0248578e-07 2.0162133e-07 3.4067608e-07
000360 1c f8 19 34 45 d6 d6 33 d7 bb 04 34 f9 6e 52 33
       1.4339497e-07 1.0004127e-07 1.2361794e-07 4.8995364e-08
000370 45 57 01 35 f7 59 8b 34 8d 58 68 35 5c 2a e6 35
       4.818324e-07 2.5956226e-07 8.6555593e-07 1.7148664e-06
000380 e1 62 7d 35 af 2a be 35 32 f6 17 36 31 0d 01 36
       9.439373e-07 1.4168526e-06 2.2644058e-06 1.9230176e-06
000390 a5 f1 a3 32 f4 cc e4 32 f8 5d 87 35 50 25 04 35
       1.9085585e-08 2.6635895e-08 1.0085632e-06 4.922813e-07
0003a0 0b fe b7 32 03 cc df 34 49 34 3b 34 fe d6 ed 35
       2.141953e-08 4.1685425e-07 1.7434753e-07 1.7720447e-06
0003b0 46 5b c1 32 62 1e 10 35 0d f6 22 35 8d 92 a8 35
       2.2509663e-08 5.3688393e-07 6.0707754e-07 1.2559627e-06
0003c0 ef 38 8f 35 98 c9 3f 34 e4 dd ff 34 bc fd 01 35
       1.06709e-06 1.78616e-07 4.7658898e-07 4.8425477e-07
0003d0 a3 1a 00 36 ae 30 e8 32 b3 ae 03 34 5c c2 33 35
       1.908899e-06 2.7030492e-08 1.2263881e-07 6.6965526e-07
0003e0 86 b6 5e 32 72 7c 31 35 24 bd f8 34 77 ec 20 33
       1.2963602e-08 6.611873e-07 4.6331218e-07 3.7467967e-08
0003f0 be 83 f4 35 1e e3 ca 35 b7 d7 6f 34 ac d0 00 34
       1.8217759e-06 1.5116273e-06 2.2337086e-07 1.1996843e-07

exp_avg f4 [64]
000000 65 3a d0 36 7b 93 a3 37 48 07 f8 b8 ac 2d 9a 36
       6.205681e-06 1.949979e-05 -0.00011826918 4.5948746e-06
000010 ea bf 99 37 a1 1d 0c 39 f2 08 58 36 70 6a bd 38
       1.8328388e-05 0.00013362478 3.2191715e-06 9.032048e-05
000020 21 38 08 b5 00 f1 c2 b6 4c 68 00 b7 85 62 85 38
       -5.0745626e-07 -5.8097066e-06 -7.653678e-06 6.360285e-05
000030 c0 88 cf 37 8a 8a 96 37 ae 78 39 b6 eb 3e 86 35
       2.4740002e-05 1.7945906e-05 -2.7637393e-06 1.000209e-06
000040 4f 44 73 37 c8 1b a9 36 85 33 81 37 92 55 6c b7
       1.4499833e-05 5.0398266e-06 1.5401989e-05 -1.408662e-05
000050 4e f4 3c 36 6f e0 6b 37 a2 d6 2b b8 5c 8f 82 37
       2.8156387e-06 1.40593465e-05 -4.096947e-05 1.5563965e-05
000060 ed ef ab b6 45 98 5b 36 f5 29 ae 35 37 c1 bc b5
       -5.124128e-06 3.2722176e-06 1.2976221e-06 -1.4063324e-06
000070 c2 21 4d 37 11 46 00 b5 4f 1d a4 b6 91 ed 2c 38
       1.2226812e-05 -4.7785676e-07 -4.890993e-06 4.1229247e-05
000080 78 37 1d 38 a6 9a 14 39 bb ba 9e 38 0b b8 4f 38
       3.7483376e-05 0.00014171991 7.568808e-05 4.952405e-05
000090 a5 9e ea b8 98 41 5d b8 48 ae cf 37 2e 92 23 38
       -0.00011187539 -5.2751595e-05 2.4757479e-05 3.899837e-05
0000a0 1d f2 93 b7 a6 49 8c b6 56 48 3c 36 d5 3b 4c b8
       -1.7636508e-05 -4.180899e-06 2.8056288e-06 -4.8693113e-05
0000b0 0f d7 55 b6 2f 73 83 37 29 72 77 38 2d ff 0e 37
       -3.1864654e-06 1.5670053e-05 5.899571e-05 8.523272e-06
0000c0 e3 29 93 b7 86 f0 a6 37 98 a5 a8 36 d6 5a 0b 36
       -1.754327e-05 1.9900745e-05 5.026068e-06 2.0765488e-06
0000d0 e1 28 cf b2 1c 91 f1 36 a5 d5 ea b7 38 dd 57 b8
       -2.4116561e-08 7.1992527e-06 -2.799446e-05 -5.146602e-05
0000e0 61 a6 9f 36 1b 9e 43 38 ba 1e 49 b8 3b 21 83 37
       4.7579383e-06 4.663887e-05 -4.795075e-05 1.5631891e-05
0000f0 91 ff 7d 37 e6 22 6e 36 fd f5 38 36 85 26 15 b8
       1.5139479e-05 3.5485077e-06 2.756132e-06 -3.5560242e-05
